…
      sampler {
        min_scale: 0.3
        max_scale: 1
        min_aspect_ratio: 0.5
        max_aspect_ratio: 2
      }
      sample_constraint {
        min_jaccard_overlap: 0.9
      }
      max_sample: 1
      max_trials: 50
    }
    batch_sampler {
      sampler {
        min_scale: 0.3
        max_scale: 1
        min_aspect_ratio: 0.5
        max_aspect_ratio: 2
      }
      sample_constraint {
        max_jaccard_overlap: 1
      }
      max_sample: 1
      max_trials: 50
    }
    label_map_file: "data/VOC0712/labelmap_voc.prototxt"
  }
}
layer {
  name: "conv1_1"
  type: "Convolution"
  bottom: "data"
  top: "conv1_1"
  param {
    lr_mult: 1
    decay_mult: 1
  }
  param {
    lr_mult: 2
    decay_mult: 0
  }
  convolution_param {
    num_output: 64
    pad: 1
    kernel_size: 3
    weight_filler {
      type: "xavier"
    }
    bias_filler {
      type: "constant"
      value: 0
    }
  }
}
layer {
  name: "relu1_1"
  type: "ReLU"
  bottom: "conv1_1"
  top: "conv1_1"
}
layer {
  name: "conv1_2"
  type: "Convolution"
  bottom: "conv1_1"
  top: "conv1_2"
  param {
    lr_mult: 1
    decay_mult: 1
  }
  param {
    lr_mult: 2
    decay_mult: 0
  }
  convolution_param {
    num_output: 64
    pad: 1
    kernel_size: 3
    weight_filler {
      type: "xavier"
    }
    bias_filler {
      type: "constant"
      value: 0
    }
  }
}
layer {
  name: "relu1_2"
  type: "ReLU"
  bottom: "conv1_2"
  top: "conv1_2"
}
layer {
  name: "pool1"
  type: "Pooling"
  bottom: "conv1_2"
  top: "pool1"
  pooling_param {
    pool: MAX
    kernel_size: 2
    stride: 2
  }
}
layer {
  name: "conv2_1"
  type: "Convolution"
  bottom: "pool1"
  top: "conv2_1"
  param {
    lr_mult: 1
    decay_mult: 1
  }
  param {
    lr_mult: 2
    decay_mult: 0
  }
  convolution_param {
    num_output: 128
    pad: 1
    kernel_size: 3
    weight_filler {
      type: "xavier"
    }
    bias_filler {
      type: "constant"
      value: 0
    }
  }
}
layer {
  name: "relu2_1"
  type: "ReLU"
  bottom: "conv2_1"
  top: "conv2_1"
}
layer {
  name: "conv2_2"
  type: "Convolution"
  bottom: "conv2_1"
  top: "conv2_2"
  param {
    lr_mult: 1
    decay_mult: 1
  }
  param {
    lr_mult: 2
    decay_mult: 0
  }
  convolution_param {
    num_output: 128
    pad: 1
    kernel_size: 3
    weight_filler {
      type: "xavier"
    }
    bias_filler {
      type: "constant"
      value: 0
    }
  }
}
layer {
  name: "relu2_2"
  type: "ReLU"
  bottom: "conv2_2"
  top: "conv2_2"
}
layer {
  name: "pool2"
  type: "Pooling"
  bottom: "conv2_2"
  top: "pool2"
  pooling_param {
    pool: MAX
    kernel_size: 2
    stride: 2
  }
}
layer {
  name: "conv3_1"
  type: "Convolution"
  bottom: "pool2"
  top: "conv3_1"
  param {
    lr_mult: 1
    decay_mult: 1
  }
  param {
    lr_mult: 2
    decay_mult: 0
  }
  convolution_param {
    num_output: 256
    pad: 1
    kernel_size: 3
    weight_filler {
      type: "xavier"
    }
    bias_filler {
      type: "constant"
      value: 0
    }
  }
}
layer {
  name: "relu3_1"
  type: "ReLU"
  bottom: "conv3_1"
  top: "conv3_1"
}
layer {
  name: "conv3_2"
  type: "Convolution"
  bottom: "conv3_1"
  top: "conv3_2"
  param {
    lr_mult: 1
    decay_mult: 1
  }
  param {
    lr_mult: 2
    decay_mult: 0
  }
  convolution_param {
    num_output: 256
    pad: 1
    kernel_size: 3
    weight_filler {
      type: "xavier"
    }
    bias_filler {
      type: "constant"
      value: 0
    }
  }
}
layer {
  name: "relu3_2"
  type: "ReLU"
  bottom: "conv3_2"
  top: "conv3_2"
}
layer {
  name: "conv3_3"
  type: "Convolution"
  bottom: "conv3_2"
  top: "conv3_3"
  param {
    lr_mult: 1
    decay_mult: 1
  }
  param {
    lr_mult: 2
    decay_mult: 0
  }
  convolution_param {
    num_output: 256
    pad: 1
    kernel_size: 3
    weight_filler {
      type: "xavier"
    }
    bias_filler {
      type: "constant"
      value: 0
    }
  }
}
layer {
  name: "relu3_3"
  type: "ReLU"
  bottom: "conv3_3"
  top: "conv3_3"
}
layer {
  name: "pool3"
  type: "Pooling"
  bottom: "conv3_3"
  top: "pool3"
  pooling_param {
    pool: MAX
    kernel_size: 2
    stride: 2
  }
}
layer {
  name: "conv4_1"
  type: "Convolution"
  bottom: "pool3"
  top: "conv4_1"
  param {
    lr_mult: 1
    decay_mult: 1
  }
  param {
    lr_mult: 2
    decay_mult: 0
  }
  convolution_param {
    num_output: 512
    pad: 1
    kernel_size: 3
    weight_filler {
      type: "xavier"
    }
    bias_filler {
      type: "constant"
      value: 0
    }
  }
}
layer {
  name: "relu4_1"
  type: "ReLU"
  bottom: "conv4_1"
  top: "conv4_1"
}
layer {
  name: "conv4_2"
  type: "Convolution"
  bottom: "conv4_1"
  top: "conv4_2"
  param {
    lr_mult: 1
    decay_mult: 1
  }
  param {
    lr_mult: 2
    decay_mult: 0
  }
  convolution_param {
    num_output: 512
    pad: 1
    kernel_size: 3
    weight_filler {
      type: "xavier"
    }
    bias_filler {
      type: "constant"
      value: 0
    }
  }
}
layer {
  name: "relu4_2"
  type: "ReLU"
  bottom: "conv4_2"
  top: "conv4_2"
}
layer {
  name: "conv4_3"
  type: "Convolution"
  bottom: "conv4_2"
  top: "conv4_3"
  param {
    lr_mult: 1
    decay_mult: 1
  }
  param {
    lr_mult: 2
    decay_mult: 0
  }
  convolution_param {
    num_output: 512
    pad: 1
    kernel_size: 3
    weight_filler {
      type: "xavier"
    }
    bias_filler {
      type: "constant"
      value: 0
    }
  }
}
layer {
  name: "relu4_3"
  type: "ReLU"
  bottom: "conv4_3"
  top: "conv4_3"
}
layer {
  name: "pool4"
  type: "Pooling"
  bottom: "conv4_3"
  top: "pool4"
  pooling_param {
    pool: MAX
    kernel_size: 2
    stride: 2
  }
}
layer {
  name: "conv5_1"
  type: "Convolution"
  bottom: "pool4"
  top: "conv5_1"
  param {
    lr_mult: 1
    decay_mult: 1
  }
  param {
    lr_mult: 2
    decay_mult: 0
  }
  convolution_param {
    num_output: 512
    pad: 1
    kernel_size: 3
    weight_filler {
      type: "xavier"
    }
    bias_filler {
      type: "constant"
      value: 0
    }
    dilation: 1
  }
}
layer {
  name: "relu5_1"
  type: "ReLU"
  bottom: "conv5_1"
  top: "conv5_1"
}
layer {
  name: "conv5_2"
  type: "Convolution"
  bottom: "conv5_1"
  top: "conv5_2"
  param {
    lr_mult: 1
    decay_mult: 1
  }
  param {
    lr_mult: 2
    decay_mult: 0
  }
  convolution_param {
    num_output: 512
    pad: 1
    kernel_size: 3
    weight_filler {
      type: "xavier"
    }
    bias_filler {
      type: "constant"
      value: 0
    }
    dilation: 1
  }
}
layer {
  name: "relu5_2"
  type: "ReLU"
  bottom: "conv5_2"
  top: "conv5_2"
}
layer {
  name: "conv5_3"
  type: "Convolution"
  bottom: "conv5_2"
  top: "conv5_3"
  param {
    lr_mult: 1
    decay_mult: 1
  }
  param {
    lr_mult: 2
    decay_mult: 0
  }
  convolution_param {
    num_output: 512
    pad: 1
    kernel_size: 3
    weight_filler {
      type: "xavier"
    }
    bias_filler {
      type: "constant"
      value: 0
    }
    dilation: 1
  }
}
layer {
  name: "relu5_3"
  type: "ReLU"
  bottom: "conv5_3"
  top: "conv5_3"
}
layer {
  name: "pool5"
  type: "Pooling"
  bottom: "conv5_3"
  top: "pool5"
  pooling_param {
    pool: MAX
    kernel_size: 3
    stride: 1
    pad: 1
  }
}
layer {
  name: "fc6"
  type: "Convolution"
  bottom: "pool5"
  top: "fc6"
  param {
    lr_mult: 1
    decay_mult: 1
  }
  param {
    lr_mult: 2
    decay_mult: 0
  }
  convolution_param {
    num_output: 1024
    pad: 6
    kernel_size: 3
    weight_filler {
      type: "xavier"
    }
    bias_filler {
      type: "constant"
      value: 0
    }
    dilation: 6
  }
}
layer {
  name: "relu6"
  type: "ReLU"
  bottom: "fc6"
  top: "fc6"
}
layer {
  name: "fc7"
  type: "Convolution"
  bottom: "fc6"
  top: "fc7"
  param {
    lr_mult: 1
    decay_mult: 1
  }
  param {
    lr_mult: 2
    decay_mult: 0
  }
  convolution_param {
    num_output: 1024
    kernel_size: 1
    weight_filler {
      type: "xavier"
    }
    bias_filler {
      type: "constant"
      value: 0
    }
  }
}
layer {
  name: "relu7"
  type: "ReLU"
  bottom: "fc7"
  top: "fc7"
}
layer {
  name: "conv6_1"
  type: "Convolution"
  bottom: "fc7"
  top: "conv6_1"
  param {
    lr_mult: 1
    decay_mult: 1
  }
  param {
    lr_mult: 2
    decay_mult: 0
  }
  convolution_param {
    num_output: 256
    pad: 0
    kernel_size: 1
    stride: 1
    weight_filler {
      type: "xavier"
    }
    bias_filler {
      type: "constant"
      value: 0
    }
  }
}
layer {
  name: "conv6_1_relu"
  type: "ReLU"
  bottom: "conv6_1"
  top: "conv6_1"
}
layer {
  name: "conv6_2"
  type: "Convolution"
  bottom: "conv6_1"
  top: "conv6_2"
  param {
    lr_mult: 1
    decay_mult: 1
  }
  param {
    lr_mult: 2
    decay_mult: 0
  }
  convolution_param {
    num_output: 512
    pad: 1
    kernel_size: 3
    stride: 2
    weight_filler {
      type: "xavier"
    }
    bias_filler {
      type: "constant"
      value: 0
    }
  }
}
layer {
  name: "conv6_2_relu"
  type: "ReLU"
  bottom: "conv6_2"
  top: "conv6_2"
}
layer {
  name: "conv7_1"
  type: "Convolution"
  bottom: "conv6_2"
  top: "conv7_1"
  param {
    lr_mult: 1
    decay_mult: 1
  }
  param {
    lr_mult: 2
    decay_mult: 0
  }
  convolution_param {
    num_output: 128
    pad: 0
    kernel_size: 1
    stride: 1
    weight_filler {
      type: "xavier"
    }
    bias_filler {
      type: "constant"
      value: 0
    }
  }
}
layer {
  name: "conv7_1_relu"
  type: "ReLU"
  bottom: "conv7_1"
  top: "conv7_1"
}
layer {
  name: "conv7_2"
  type: "Convolution"
  bottom: "conv7_1"
  top: "conv7_2"
  param {
    lr_mult: 1
    decay_mult: 1
  }
  param {
    lr_mult: 2
    decay_mult: 0
  }
  convolution_param {
    num_output: 256
    pad: 1
    kernel_size: 3
    stride: 2
    weight_filler {
      type: "xavier"
    }
    bias_filler {
      type: "constant"
      value: 0
    }
  }
}
layer {
  name: "conv7_2_relu"
  type: "ReLU"
  bottom: "conv7_2"
  top: "conv7_2"
}
layer {
  name: "conv8_1"
  type: "Convolution"
  bottom: "conv7_2"
  top: "conv8_1"
  param {
    lr_mult: 1
    decay_mult: 1
  }
  param {
    lr_mult: 2
    decay_mult: 0
  }
  convolution_param {
    num_output: 128
    pad: 0
    kernel_size: 1
    stride: 1
    weight_filler {
      type: "xavier"
    }
    bias_filler {
      type: "constant"
      value: 0
    }
  }
}
layer {
  name: "conv8_1_relu"
  type: "ReLU"
  bottom: "conv8_1"
  top: "conv8_1"
}
layer {
  name: "conv8_2"
  type: "Convolution"
  bottom: "conv8_1"
  top: "conv8_2"
  param {
    lr_mult: 1
    decay_mult: 1
  }
  param {
    lr_mult: 2
    decay_mult: 0
  }
  convolution_param {
    num_output: 256
    pad: 0
    kernel_size: 3
    stride: 1
    weight_filler {
      type: "xavier"
    }
    bias_filler {
      type: "constant"
      value: 0
    }
  }
}
layer {
  name: "conv8_2_relu"
  type: "ReLU"
  bottom: "conv8_2"
  top: "conv8_2"
}
layer {
  name: "conv9_1"
  type: "Convolution"
  bottom: "conv8_2"
  top: "conv9_1"
  param {
    lr_mult: 1
    decay_mult: 1
  }
  param {
    lr_mult: 2
    decay_mult: 0
  }
  convolution_param {
    num_output: 128
    pad: 0
    kernel_size: 1
    stride: 1
    weight_filler {
      type: "xavier"
    }
    bias_filler {
      type: "constant"
      value: 0
    }
  }
}
layer {
  name: "conv9_1_relu"
  type: "ReLU"
  bottom: "conv9_1"
  top: "conv9_1"
}
layer {
  name: "conv9_2"
  type: "Convolution"
  bottom: "conv9_1"
  top: "conv9_2"
  param {
    lr_mult: 1
    decay_mult: 1
  }
  param {
    lr_mult: 2
    decay_mult: 0
  }
  convolution_param {
    num_output: 256
    pad: 0
    kernel_size: 3
    stride: 1
    weight_filler {
      type: "xavier"
    }
    bias_filler {
      type: "constant"
      value: 0
    }
  }
}
layer {
  name: "conv9_2_relu"
  type: "ReLU"
  bottom: "conv9_2"
  top: "conv9_2"
}
layer {
  name: "conv4_3_norm"
  type: "Normalize"
  bottom: "conv4_3"
  top: "conv4_3_norm"
  norm_param {
    across_spatial: false
    scale_filler {
      type: "constant"
      value: 20
    }
    channel_shared: false
  }
}
layer {
  name: "conv4_3_norm_mbox_loc"
  type: "Convolution"
  bottom: "conv4_3_norm"
  top: "conv4_3_norm_mbox_loc"
  param {
    lr_mult: 1
    decay_mult: 1
  }
  param {
    lr_mult: 2
    decay_mult: 0
  }
  convolution_param {
    num_output: 16
    pad: 1
    kernel_size: 3
    stride: 1
    weight_filler {
      type: "xavier"
    }
    bias_filler {
      type: "constant"
      value: 0
    }
  }
}
layer {
  name: "conv4_3_norm_mbox_loc_perm"
  type: "Permute"
  bottom: "conv4_3_norm_mbox_loc"
  top: "conv4_3_norm_mbox_loc_perm"
  permute_param {
    order: 0
    order: 2
    order: 3
    order: 1
  }
}
layer {
  name: "conv4_3_norm_mbox_loc_flat"
  type: "Flatten"
  bottom: "conv4_3_norm_mbox_loc_perm"
  top: "conv4_3_norm_mbox_loc_flat"
  flatten_param {
    axis: 1
  }
}
layer {
  name: "conv4_3_norm_mbox_conf"
  type: "Convolution"
  bottom: "conv4_3_norm"
  top: "conv4_3_norm_mbox_conf"
  param {
    lr_mult: 1
    decay_mult: 1
  }
  param {
    lr_mult: 2
    decay_mult: 0
  }
  convolution_param {
    num_output: 84
    pad: 1
    kernel_size: 3
    stride: 1
    weight_filler {
      type: "xavier"
    }
    bias_filler {
      type: "constant"
      value: 0
    }
  }
}
layer {
  name: "conv4_3_norm_mbox_conf_perm"
  type: "Permute"
  bottom: "conv4_3_norm_mbox_conf"
  top: "conv4_3_norm_mbox_conf_perm"
  permute_param {
    order: 0
    order: 2
    order: 3
    order: 1
  }
}
layer {
  name: "conv4_3_norm_mbox_conf_flat"
  type: "Flatten"
  bottom: "conv4_3_norm_mbox_conf_perm"
  top: "conv4_3_norm_mbox_conf_flat"
  flatten_param {
    axis: 1
  }
}
layer {
  name: "conv4_3_norm_mbox_priorbox"
  type: "PriorBox"
  bottom: "conv4_3_norm"
  bottom: "data"
  top: "conv4_3_norm_mbox_priorbox"
  prior_box_param {
    min_size: 30
    max_size: 60
    aspect_ratio: 2
    flip: true
    clip: false
    variance: 0.1
    variance: 0.1
    variance: 0.2
    variance: 0.2
    step: 8
    offset: 0.5
  }
}
layer {
  name: "fc7_mbox_loc"
  type: "Convolution"
  bottom: "fc7"
  top: "fc7_mbox_loc"
  param {
    lr_mult: 1
    decay_mult: 1
  }
  param {
    lr_mult: 2
    decay_mult: 0
  }
  convolution_param {
    num_output: 24
    pad: 1
    kernel_size: 3
    stride: 1
    weight_filler {
      type: "xavier"
    }
    bias_filler {
      type: "constant"
      value: 0
    }
  }
}
layer {
  name: "fc7_mbox_loc_perm"
  type: "Permute"
  bottom: "fc7_mbox_loc"
  top: "fc7_mbox_loc_perm"
  permute_param {
    order: 0
    order: 2
    order: 3
    order: 1
  }
}
layer {
  name: "fc7_mbox_loc_flat"
  type: "Flatten"
  bottom: "fc7_mbox_loc_perm"
  top: "fc7_mbox_loc_flat"
  flatten_param {
    axis: 1
  }
}
layer {
  name: "fc7_mbox_conf"
  type: "Convolution"
  bottom: "fc7"
  top: "fc7_mbox_conf"
  param {
    lr_mult: 1
    decay_mult: 1
  }
  param {
    lr_mult: 2
    decay_mult: 0
  }
  convolution_param {
    num_output: 126
    pad: 1
    kernel_size: 3
    stride: 1
    weight_filler {
      type: "xavier"
    }
    bias_filler {
      type: "constant"
      value: 0
    }
  }
}
layer {
  name: "fc7_mbox_conf_perm"
  type: "Permute"
  bottom: "fc7_mbox_conf"
  top: "fc7_mbox_conf_perm"
  permute_param {
    order: 0
    order: 2
    order: 3
    order: 1
  }
}
layer {
  name: "fc7_mbox_conf_flat"
  type: "Flatten"
  bottom: "fc7_mbox_conf_perm"
  top: "fc7_mbox_conf_flat"
  flatten_param {
    axis: 1
  }
}
layer {
  name: "fc7_mbox_priorbox"
  type: "PriorBox"
  bottom: "fc7"
  bottom: "data"
  top: "fc7_mbox_priorbox"
  prior_box_param {
    min_size: 60
    max_size: 111
    aspect_ratio: 2
    aspect_ratio: 3
    flip: true
    clip: false
    variance: 0.1
    variance: 0.1
    variance: 0.2
    variance: 0.2
    step: 16
    offset: 0.5
  }
}
layer {
  name: "conv6_2_mbox_loc"
  type: "Convolution"
  bottom: "conv6_2"
  top: "conv6_2_mbox_loc"
  param {
    lr_mult: 1
    decay_mult: 1
  }
  param {
    lr_mult: 2
    decay_mult: 0
  }
  convolution_param {
    num_output: 24
    pad: 1
    kernel_size: 3
    stride: 1
    weight_filler {
      type: "xavier"
    }
    bias_filler {
      type: "constant"
      value: 0
    }
  }
}
layer {
  name: "conv6_2_mbox_loc_perm"
  type: "Permute"
  bottom: "conv6_2_mbox_loc"
  top: "conv6_2_mbox_loc_perm"
  permute_param {
    order: 0
    order: 2
    order: 3
    order: 1
  }
}
layer {
  name: "conv6_2_mbox_loc_flat"
  type: "Flatten"
  bottom: "conv6_2_mbox_loc_perm"
  top: "conv6_2_mbox_loc_flat"
  flatten_param {
    axis: 1
  }
}
layer {
  name: "conv6_2_mbox_conf"
  type: "Convolution"
  bottom: "conv6_2"
  top: "conv6_2_mbox_conf"
  param {
    lr_mult: 1
    decay_mult: 1
  }
  param {
    lr_mult: 2
    decay_mult: 0
  }
  convolution_param {
    num_output: 126
    pad: 1
    kernel_size: 3
    stride: 1
    weight_filler {
      type: "xavier"
    }
    bias_filler {
      type: "constant"
      value: 0
    }
  }
}
layer {
  name: "conv6_2_mbox_conf_perm"
  type: "Permute"
  bottom: "conv6_2_mbox_conf"
  top: "conv6_2_mbox_conf_perm"
  permute_param {
    order: 0
    order: 2
    order: 3
    order: 1
  }
}
layer {
  name: "conv6_2_mbox_conf_flat"
  type: "Flatten"
  bottom: "conv6_2_mbox_conf_perm"
  top: "conv6_2_mbox_conf_flat"
  flatten_param {
    axis: 1
  }
}
layer {
  name: "conv6_2_mbox_priorbox"
  type: "PriorBox"
  bottom: "conv6_2"
  bottom: "data"
  top: "conv6_2_mbox_priorbox"
  prior_box_param {
    min_size: 111
    max_size: 162
    aspect_ratio: 2
    aspect_ratio: 3
    flip: true
    clip: false
    variance: 0.1
    variance: 0.1
    variance: 0.2
    variance: 0.2
    step: 32
    offset: 0.5
  }
}
layer {
  name: "conv7_2_mbox_loc"
  type: "Convolution"
  bottom: "conv7_2"
  top: "conv7_2_mbox_loc"
  param {
    lr_mult: 1
    decay_mult: 1
  }
  param {
    lr_mult: 2
    decay_mult: 0
  }
  convolution_param {
    num_output: 24
    pad: 1
    kernel_size: 3
    stride: 1
    weight_filler {
      type: "xavier"
    }
    bias_filler {
      type: "constant"
      value: 0
    }
  }
}
layer {
  name: "conv7_2_mbox_loc_perm"
  type: "Permute"
  bottom: "conv7_2_mbox_loc"
  top: "conv7_2_mbox_loc_perm"
  permute_param {
    order: 0
    order: 2
    order: 3
    order: 1
  }
}
layer {
  name: "conv7_2_mbox_loc_flat"
  type: "Flatten"
  bottom: "conv7_2_mbox_loc_perm"
  top: "conv7_2_mbox_loc_flat"
  flatten_param {
    axis: 1
  }
}
layer {
  name: "conv7_2_mbox_conf"
  type: "Convolution"
  bottom: "conv7_2"
  top: "conv7_2_mbox_conf"
  param {
    lr_mult: 1
    decay_mult: 1
  }
  param {
    lr_mult: 2
    decay_mult: 0
  }
  convolution_param {
    num_output: 126
    pad: 1
    kernel_size: 3
    stride: 1
    weight_filler {
      type: "xavier"
    }
    bias_filler {
      type: "constant"
      value: 0
    }
  }
}
layer {
  name: "conv7_2_mbox_conf_perm"
  type: "Permute"
  bottom: "conv7_2_mbox_conf"
  top: "conv7_2_mbox_conf_perm"
  permute_param {
    order: 0
    order: 2
    order: 3
    order: 1
  }
}
layer {
  name: "conv7_2_mbox_conf_flat"
  type: "Flatten"
  bottom: "conv7_2_mbox_conf_perm"
  top: "conv7_2_mbox_conf_flat"
  flatten_param {
    axis: 1
  }
}
layer {
  name: "conv7_2_mbox_priorbox"
  type: "PriorBox"
  bottom: "conv7_2"
  bottom: "data"
  top: "conv7_2_mbox_priorbox"
  prior_box_param {
    min_size: 162
    max_size: 213
    aspect_ratio: 2
    aspect_ratio: 3
    flip: true
    clip: false
    variance: 0.1
    variance: 0.1
    variance: 0.2
    variance: 0.2
    step: 64
    offset: 0.5
  }
}
layer {
  name: "conv8_2_mbox_loc"
  type: "Convolution"
  bottom: "conv8_2"
  top: "conv8_2_mbox_loc"
  param {
    lr_mult: 1
    decay_mult: 1
  }
  param {
    lr_mult: 2
    decay_mult: 0
  }
  convolution_param {
    num_output: 16
    pad: 1
    kernel_size: 3
    stride: 1
    weight_filler {
      type: "xavier"
    }
    bias_filler {
      type: "constant"
      value: 0
    }
  }
}
layer {
  name: "conv8_2_mbox_loc_perm"
  type: "Permute"
  bottom: "conv8_2_mbox_loc"
  top: "conv8_2_mbox_loc_perm"
  permute_param {
    order: 0
    order: 2
    order: 3
    order: 1
  }
}
layer {
  name: "conv8_2_mbox_loc_flat"
  type: "Flatten"
  bottom: "conv8_2_mbox_loc_perm"
  top: "conv8_2_mbox_loc_flat"
  flatten_param {
    axis: 1
  }
}
layer {
  name: "conv8_2_mbox_conf"
  type: "Convolution"
  bottom: "conv8_2"
  top: "conv8_2_mbox_conf"
  param {
    lr_mult: 1
    decay_mult: 1
  }
  param {
    lr_mult: 2
    decay_mult: 0
  }
  convolution_param {
    num_output: 84
    pad: 1
    kernel_size: 3
    stride: 1
    weight_filler {
      type: "xavier"
    }
    bias_filler {
      type: "constant"
      value: 0
    }
  }
}
layer {
  name: "conv8_2_mbox_conf_perm"
  type: "Permute"
  bottom: "conv8_2_mbox_conf"
  top: "conv8_2_mbox_conf_perm"
  permute_param {
    order: 0
    order: 2
    order: 3
    order: 1
  }
}
layer {
  name: "conv8_2_mbox_conf_flat"
  type: "Flatten"
  bottom: "conv8_2_mbox_conf_perm"
  top: "conv8_2_mbox_conf_flat"
  flatten_param {
    axis: 1
  }
}
layer {
  name: "conv8_2_mbox_priorbox"
  type: "PriorBox"
  bottom: "conv8_2"
  bottom: "data"
  top: "conv8_2_mbox_priorbox"
  prior_box_param {
    min_size: 213
    max_size: 264
    aspect_ratio: 2
    flip: true
    clip: false
    variance: 0.1
    variance: 0.1
    variance: 0.2
    variance: 0.2
    step: 100
    offset: 0.5
  }
}
layer {
  name: "conv9_2_mbox_loc"
  type: "Convolution"
  bottom: "conv9_2"
  top: "conv9_2_mbox_loc"
  param {
    lr_mult: 1
    decay_mult: 1
  }
  param {
    lr_mult: 2
    decay_mult: 0
  }
  convolution_param {
    num_output: 16
    pad: 1
    kernel_size: 3
    stride: 1
    weight_filler {
      type: "xavier"
    }
    bias_filler {
      type: "constant"
      value: 0
    }
  }
}
layer {
  name: "conv9_2_mbox_loc_perm"
  type: "Permute"
  bottom: "conv9_2_mbox_loc"
  top: "conv9_2_mbox_loc_perm"
  permute_param {
    order: 0
    order: 2
    order: 3
    order: 1
  }
}
layer {
  name: "conv9_2_mbox_loc_flat"
  type: "Flatten"
  bottom: "conv9_2_mbox_loc_perm"
  top: "conv9_2_mbox_loc_flat"
  flatten_param {
    axis: 1
  }
}
layer {
  name: "conv9_2_mbox_conf"
  type: "Convolution"
  bottom: "conv9_2"
  top: "conv9_2_mbox_conf"
  param {
    lr_mult: 1
    decay_mult: 1
  }
  param {
    lr_mult: 2
    decay_mult: 0
  }
  convolution_param {
    num_output: 84
    pad: 1
    kernel_size: 3
    stride: 1
    weight_filler {
      type: "xavier"
    }
    bias_filler {
      type: "constant"
      value: 0
    }
  }
}
layer {
  name: "conv9_2_mbox_conf_perm"
  type: "Permute"
  bottom: "conv9_2_mbox_conf"
  top: "conv9_2_mbox_conf_perm"
  permute_param {
    order: 0
    order: 2
    order: 3
    order: 1
  }
}
layer {
  name: "conv9_2_mbox_conf_flat"
  type: "Flatten"
  bottom: "conv9_2_mbox_conf_perm"
  top: "conv9_2_mbox_conf_flat"
  flatten_param {
    axis: 1
  }
}
layer {
  name: "conv9_2_mbox_priorbox"
  type: "PriorBox"
  bottom: "conv9_2"
  bottom: "data"
  top: "conv9_2_mbox_priorbox"
  prior_box_param {
    min_size: 264
    max_size: 315
    aspect_ratio: 2
    flip: true
    clip: false
    variance: 0.1
    variance: 0.1
    variance: 0.2
    variance: 0.2
    step: 300
    offset: 0.5
  }
}
layer {
  name: "mbox_loc"
  type: "Concat"
  bottom: "conv4_3_norm_mbox_loc_flat"
  bottom: "fc7_mbox_loc_flat"
  bottom: "conv6_2_mbox_loc_flat"
  bottom: "conv7_2_mbox_loc_flat"
  bottom: "conv8_2_mbox_loc_flat"
  bottom: "conv9_2_mbox_loc_flat"
  top: "mbox_loc"
  concat_param {
    axis: 1
  }
}
layer {
  name: "mbox_conf"
  type: "Concat"
  bottom: "conv4_3_norm_mbox_conf_flat"
  bottom: "fc7_mbox_conf_flat"
  bottom: "conv6_2_mbox_conf_flat"
  bottom: "conv7_2_mbox_conf_flat"
  bottom: "conv8_2_mbox_conf_flat"
  bottom: "conv9_2_mbox_conf_flat"
  top: "mbox_conf"
  concat_param {
    axis: 1
  }
}
layer {
  name: "mbox_priorbox"
  type: "Concat"
  bottom: "conv4_3_norm_mbox_priorbox"
  bottom: "fc7_mbox_priorbox"
  bottom: "conv6_2_mbox_priorbox"
  bottom: "conv7_2_mbox_priorbox"
  bottom: "conv8_2_mbox_priorbox"
  bottom: "conv9_2_mbox_priorbox"
  top: "mbox_priorbox"
  concat_param {
    axis: 2
  }
}
layer {
  name: "mbox_loss"
  type: "MultiBoxLoss"
  bottom: "mbox_loc"
  bottom: "mbox_conf"
  bottom: "mbox_priorbox"
  bottom: "label"
  top: "mbox_loss"
  include {
    phase: TRAIN
  }
  propagate_down: true
  propagate_down: true
  propagate_down: false
  propagate_down: false
  loss_param {
    normalization: VALID
  }
  multibox_loss_param {
    loc_loss_type: SMOOTH_L1
    conf_loss_type: SOFTMAX
    loc_weight: 1
    num_classes: 21
    share_location: true
    match_type: PER_PREDICTION
    overlap_threshold: 0.5
    use_prior_for_matching: true
    background_label_id: 0
    use_difficult_gt: true
    neg_pos_ratio: 3
    neg_overlap: 0.5
    code_type: CENTER_SIZE
    ignore_cross_boundary_bbox: false
    mining_type: MAX_NEGATIVE
  }
}
I0531 15:43:29.228361 11959 layer_factory.hpp:77] Creating layer data
I0531 15:43:29.228490 11959 net.cpp:100] Creating Layer data
I0531 15:43:29.228499 11959 net.cpp:408] data -> data
I0531 15:43:29.228523 11959 net.cpp:408] data -> label
I0531 15:43:29.229300 11968 db_lmdb.cpp:35] Opened lmdb examples/VOC0712/VOC0712_trainval_lmdb
I0531 15:43:29.240847 11959 annotated_data_layer.cpp:62] output data size: 16,3,300,300
I0531 15:43:29.263612 11959 net.cpp:150] Setting up data
I0531 15:43:29.263648 11959 net.cpp:157] Top shape: 16 3 300 300 (4320000)
I0531 15:43:29.263653 11959 net.cpp:157] Top shape: 1 1 7 8 (56)
I0531 15:43:29.263684 11959 net.cpp:165] Memory required for data: 17280224
I0531 15:43:29.263702 11959 layer_factory.hpp:77] Creating layer data_data_0_split
I0531 15:43:29.263720 11959 net.cpp:100] Creating Layer data_data_0_split
I0531 15:43:29.263725 11959 net.cpp:434] data_data_0_split <- data
I0531 15:43:29.263741 11959 net.cpp:408] data_data_0_split -> data_data_0_split_0
I0531 15:43:29.263752 11959 net.cpp:408] data_data_0_split -> data_data_0_split_1
I0531 15:43:29.263759 11959 net.cpp:408] data_data_0_split -> data_data_0_split_2
I0531 15:43:29.263765 11959 net.cpp:408] data_data_0_split -> data_data_0_split_3
I0531 15:43:29.263772 11959 net.cpp:408] data_data_0_split -> data_data_0_split_4
I0531 15:43:29.263777 11959 net.cpp:408] data_data_0_split -> data_data_0_split_5
I0531 15:43:29.263782 11959 net.cpp:408] data_data_0_split -> data_data_0_split_6
I0531 15:43:29.263887 11959 net.cpp:150] Setting up data_data_0_split
I0531 15:43:29.263893 11959 net.cpp:157] Top shape: 16 3 300 300 (4320000)
I0531 15:43:29.263897 11959 net.cpp:157] Top shape: 16 3 300 300 (4320000)
I0531 15:43:29.263902 11959 net.cpp:157] Top shape: 16 3 300 300 (4320000)
I0531 15:43:29.263906 11959 net.cpp:157] Top shape: 16 3 300 300 (4320000)
I0531 15:43:29.263911 11959 net.cpp:157] Top shape: 16 3 300 300 (4320000)
I0531 15:43:29.263913 11959 net.cpp:157] Top shape: 16 3 300 300 (4320000)
I0531 15:43:29.263917 11959 net.cpp:157] Top shape: 16 3 300 300 (4320000)
I0531 15:43:29.263921 11959 net.cpp:165] Memory required for data: 138240224
I0531 15:43:29.263924 11959 layer_factory.hpp:77] Creating layer conv1_1
I0531 15:43:29.263942 11959 net.cpp:100] Creating Layer conv1_1
I0531 15:43:29.263947 11959 net.cpp:434] conv1_1 <- data_data_0_split_0
I0531 15:43:29.263953 11959 net.cpp:408] conv1_1 -> conv1_1
I0531 15:43:29.282104 11969 blocking_queue.cpp:50] Waiting for data
I0531 15:43:29.680579 11959 net.cpp:150] Setting up conv1_1
I0531 15:43:29.680598 11959 net.cpp:157] Top shape: 16 64 300 300 (92160000)
I0531 15:43:29.680616 11959 net.cpp:165] Memory required for data: 506880224
I0531 15:43:29.680631 11959 layer_factory.hpp:77] Creating layer relu1_1
I0531 15:43:29.680641 11959 net.cpp:100] Creating Layer relu1_1
I0531 15:43:29.680646 11959 net.cpp:434] relu1_1 <- conv1_1
I0531 15:43:29.680654 11959 net.cpp:395] relu1_1 -> conv1_1 (in-place)
I0531 15:43:29.680954 11959 net.cpp:150] Setting up relu1_1
I0531 15:43:29.680963 11959 net.cpp:157] Top shape: 16 64 300 300 (92160000)
I0531 15:43:29.680964 11959 net.cpp:165] Memory required for data: 875520224
I0531 15:43:29.680968 11959 layer_factory.hpp:77] Creating layer conv1_2
I0531 15:43:29.680979 11959 net.cpp:100] Creating Layer conv1_2
I0531 15:43:29.680981 11959 net.cpp:434] conv1_2 <- conv1_1
I0531 15:43:29.680985 11959 net.cpp:408] conv1_2 -> conv1_2
I0531 15:43:29.682906 11959 net.cpp:150] Setting up conv1_2
I0531 15:43:29.682915 11959 net.cpp:157] Top shape: 16 64 300 300 (92160000)
I0531 15:43:29.682932 11959 net.cpp:165] Memory required for data: 1244160224
I0531 15:43:29.682940 11959 layer_factory.hpp:77] Creating layer relu1_2
I0531 15:43:29.682945 11959 net.cpp:100] Creating Layer relu1_2
I0531 15:43:29.682950 11959 net.cpp:434] relu1_2 <- conv1_2
I0531 15:43:29.682955 11959 net.cpp:395] relu1_2 -> conv1_2 (in-place)
I0531 15:43:29.683212 11959 net.cpp:150] Setting up relu1_2
I0531 15:43:29.683218 11959 net.cpp:157] Top shape: 16 64 300 300 (92160000)
I0531 15:43:29.683234 11959 net.cpp:165] Memory required for data: 1612800224
I0531 15:43:29.683236 11959 layer_factory.hpp:77] Creating layer pool1
I0531 15:43:29.683241 11959 net.cpp:100] Creating Layer pool1
I0531 15:43:29.683244 11959 net.cpp:434] pool1 <- conv1_2
I0531 15:43:29.683249 11959 net.cpp:408] pool1 -> pool1
I0531 15:43:29.683286 11959 net.cpp:150] Setting up pool1
I0531 15:43:29.683290 11959 net.cpp:157] Top shape: 16 64 150 150 (23040000)
I0531 15:43:29.683293 11959 net.cpp:165] Memory required for data: 1704960224
I0531 15:43:29.683295 11959 layer_factory.hpp:77] Creating layer conv2_1
I0531 15:43:29.683312 11959 net.cpp:100] Creating Layer conv2_1
I0531 15:43:29.683315 11959 net.cpp:434] conv2_1 <- pool1
I0531 15:43:29.683320 11959 net.cpp:408] conv2_1 -> conv2_1
I0531 15:43:29.684852 11959 net.cpp:150] Setting up conv2_1
I0531 15:43:29.684870 11959 net.cpp:157] Top shape: 16 128 150 150 (46080000)
I0531 15:43:29.684873 11959 net.cpp:165] Memory required for data: 1889280224
I0531 15:43:29.684900 11959 layer_factory.hpp:77] Creating layer relu2_1
I0531 15:43:29.684906 11959 net.cpp:100] Creating Layer relu2_1
I0531 15:43:29.684909 11959 net.cpp:434] relu2_1 <- conv2_1
I0531 15:43:29.684916 11959 net.cpp:395] relu2_1 -> conv2_1 (in-place)
I0531 15:43:29.685470 11959 net.cpp:150] Setting up relu2_1
I0531 15:43:29.685478 11959 net.cpp:157] Top shape: 16 128 150 150 (46080000)
I0531 15:43:29.685495 11959 net.cpp:165] Memory required for data: 2073600224
I0531 15:43:29.685497 11959 layer_factory.hpp:77] Creating layer conv2_2
I0531 15:43:29.685506 11959 net.cpp:100] Creating Layer conv2_2
I0531 15:43:29.685511 11959 net.cpp:434] conv2_2 <- conv2_1
I0531 15:43:29.685531 11959 net.cpp:408] conv2_2 -> conv2_2
I0531 15:43:29.687621 11959 net.cpp:150] Setting up conv2_2
I0531 15:43:29.687630 11959 net.cpp:157] Top shape: 16 128 150 150 (46080000)
I0531 15:43:29.687633 11959 net.cpp:165] Memory required for data: 2257920224
I0531 15:43:29.687638 11959 layer_factory.hpp:77] Creating layer relu2_2
I0531 15:43:29.687642 11959 net.cpp:100] Creating Layer relu2_2
I0531 15:43:29.687647 11959 net.cpp:434] relu2_2 <- conv2_2
I0531 15:43:29.687650 11959 net.cpp:395] relu2_2 -> conv2_2 (in-place)
I0531 15:43:29.687950 11959 net.cpp:150] Setting up relu2_2
I0531 15:43:29.687957 11959 net.cpp:157] Top shape: 16 128 150 150 (46080000)
I0531 15:43:29.687973 11959 net.cpp:165] Memory required for data: 2442240224
I0531 15:43:29.687975 11959 layer_factory.hpp:77] Creating layer pool2
I0531 15:43:29.687980 11959 net.cpp:100] Creating Layer pool2
I0531 15:43:29.687983 11959 net.cpp:434] pool2 <- conv2_2
I0531 15:43:29.687988 11959 net.cpp:408] pool2 -> pool2
I0531 15:43:29.688017 11959 net.cpp:150] Setting up pool2
I0531 15:43:29.688021 11959 net.cpp:157] Top shape: 16 128 75 75 (11520000)
I0531 15:43:29.688024 11959 net.cpp:165] Memory required for data: 2488320224
I0531 15:43:29.688026 11959 layer_factory.hpp:77] Creating layer conv3_1
I0531 15:43:29.688032 11959 net.cpp:100] Creating Layer conv3_1
I0531 15:43:29.688036 11959 net.cpp:434] conv3_1 <- pool2
I0531 15:43:29.688042 11959 net.cpp:408] conv3_1 -> conv3_1
I0531 15:43:29.691869 11959 net.cpp:150] Setting up conv3_1
I0531 15:43:29.691901 11959 net.cpp:157] Top shape: 16 256 75 75 (23040000)
I0531 15:43:29.691905 11959 net.cpp:165] Memory required for data: 2580480224
I0531 15:43:29.691916 11959 layer_factory.hpp:77] Creating layer relu3_1
I0531 15:43:29.691937 11959 net.cpp:100] Creating Layer relu3_1
I0531 15:43:29.691942 11959 net.cpp:434] relu3_1 <- conv3_1
I0531 15:43:29.691948 11959 net.cpp:395] relu3_1 -> conv3_1 (in-place)
I0531 15:43:29.692313 11959 net.cpp:150] Setting up relu3_1
I0531 15:43:29.692322 11959 net.cpp:157] Top shape: 16 256 75 75 (23040000)
I0531 15:43:29.692324 11959 net.cpp:165] Memory required for data: 2672640224
I0531 15:43:29.692327 11959 layer_factory.hpp:77] Creating layer conv3_2
I0531 15:43:29.692337 11959 net.cpp:100] Creating Layer conv3_2
I0531 15:43:29.692342 11959 net.cpp:434] conv3_2 <- conv3_1
I0531 15:43:29.692347 11959 net.cpp:408] conv3_2 -> conv3_2
I0531 15:43:29.697775 11959 net.cpp:150] Setting up conv3_2
I0531 15:43:29.697801 11959 net.cpp:157] Top shape: 16 256 75 75 (23040000)
I0531 15:43:29.697804 11959 net.cpp:165] Memory required for data: 2764800224
I0531 15:43:29.697813 11959 layer_factory.hpp:77] Creating layer relu3_2
I0531 15:43:29.697824 11959 net.cpp:100] Creating Layer relu3_2
I0531 15:43:29.697830 11959 net.cpp:434] relu3_2 <- conv3_2
I0531 15:43:29.697839 11959 net.cpp:395] relu3_2 -> conv3_2 (in-place)
I0531 15:43:29.698622 11959 net.cpp:150] Setting up relu3_2
I0531 15:43:29.698634 11959 net.cpp:157] Top shape: 16 256 75 75 (23040000)
I0531 15:43:29.698648 11959 net.cpp:165] Memory required for data: 2856960224
I0531 15:43:29.698652 11959 layer_factory.hpp:77] Creating layer conv3_3
I0531 15:43:29.698667 11959 net.cpp:100] Creating Layer conv3_3
I0531 15:43:29.698668 11959 net.cpp:434] conv3_3 <- conv3_2
I0531 15:43:29.698674 11959 net.cpp:408] conv3_3 -> conv3_3
I0531 15:43:29.703905 11959 net.cpp:150] Setting up conv3_3
I0531 15:43:29.703917 11959 net.cpp:157] Top shape: 16 256 75 75 (23040000)
I0531 15:43:29.703918 11959 net.cpp:165] Memory required for data: 2949120224
I0531 15:43:29.703924 11959 layer_factory.hpp:77] Creating layer relu3_3
I0531 15:43:29.703930 11959 net.cpp:100] Creating Layer relu3_3
I0531 15:43:29.703933 11959 net.cpp:434] relu3_3 <- conv3_3
I0531 15:43:29.703936 11959 net.cpp:395] relu3_3 -> conv3_3 (in-place)
I0531 15:43:29.704243 11959 net.cpp:150] Setting up relu3_3
I0531 15:43:29.704252 11959 net.cpp:157] Top shape: 16 256 75 75 (23040000)
I0531 15:43:29.704253 11959 net.cpp:165] Memory required for data: 3041280224
I0531 15:43:29.704255 11959 layer_factory.hpp:77] Creating layer pool3
I0531 15:43:29.704259 11959 net.cpp:100] Creating Layer pool3
I0531 15:43:29.704262 11959 net.cpp:434] pool3 <- conv3_3
I0531 15:43:29.704265 11959 net.cpp:408] pool3 -> pool3
I0531 15:43:29.704298 11959 net.cpp:150] Setting up pool3
I0531 15:43:29.704301 11959 net.cpp:157] Top shape: 16 256 38 38 (5914624)
I0531 15:43:29.704303 11959 net.cpp:165] Memory required for data: 3064938720
I0531 15:43:29.704305 11959 layer_factory.hpp:77] Creating layer conv4_1
I0531 15:43:29.704313 11959 net.cpp:100] Creating Layer conv4_1
I0531 15:43:29.704314 11959 net.cpp:434] conv4_1 <- pool3
I0531 15:43:29.704319 11959 net.cpp:408] conv4_1 -> conv4_1
I0531 15:43:29.712067 11959 net.cpp:150] Setting up conv4_1
I0531 15:43:29.712085 11959 net.cpp:157] Top shape: 16 512 38 38 (11829248)
I0531 15:43:29.712087 11959 net.cpp:165] Memory required for data: 3112255712
I0531 15:43:29.712100 11959 layer_factory.hpp:77] Creating layer relu4_1
I0531 15:43:29.712119 11959 net.cpp:100] Creating Layer relu4_1
I0531 15:43:29.712122 11959 net.cpp:434] relu4_1 <- conv4_1
I0531 15:43:29.712126 11959 net.cpp:395] relu4_1 -> conv4_1 (in-place)
I0531 15:43:29.712438 11959 net.cpp:150] Setting up relu4_1
I0531 15:43:29.712445 11959 net.cpp:157] Top shape: 16 512 38 38 (11829248)
I0531 15:43:29.712447 11959 net.cpp:165] Memory required for data: 3159572704
I0531 15:43:29.712450 11959 layer_factory.hpp:77] Creating layer conv4_2
I0531 15:43:29.712457 11959 net.cpp:100] Creating Layer conv4_2
I0531 15:43:29.712460 11959 net.cpp:434] conv4_2 <- conv4_1
I0531 15:43:29.712463 11959 net.cpp:408] conv4_2 -> conv4_2
I0531 15:43:29.723990 11959 net.cpp:150] Setting up conv4_2
I0531 15:43:29.724007 11959 net.cpp:157] Top shape: 16 512 38 38 (11829248)
I0531 15:43:29.724010 11959 net.cpp:165] Memory required for data: 3206889696
I0531 15:43:29.724021 11959 layer_factory.hpp:77] Creating layer relu4_2
I0531 15:43:29.724030 11959 net.cpp:100] Creating Layer relu4_2
I0531 15:43:29.724033 11959 net.cpp:434] relu4_2 <- conv4_2
I0531 15:43:29.724038 11959 net.cpp:395] relu4_2 -> conv4_2 (in-place)
I0531 15:43:29.724347 11959 net.cpp:150] Setting up relu4_2
I0531 15:43:29.724354 11959 net.cpp:157] Top shape: 16 512 38 38 (11829248)
I0531 15:43:29.724357 11959 net.cpp:165] Memory required for data: 3254206688
I0531 15:43:29.724359 11959 layer_factory.hpp:77] Creating layer conv4_3
I0531 15:43:29.724380 11959 net.cpp:100] Creating Layer conv4_3
I0531 15:43:29.724383 11959 net.cpp:434] conv4_3 <- conv4_2
I0531 15:43:29.724388 11959 net.cpp:408] conv4_3 -> conv4_3
I0531 15:43:29.736416 11959 net.cpp:150] Setting up conv4_3
I0531 15:43:29.736433 11959 net.cpp:157] Top shape: 16 512 38 38 (11829248)
I0531 15:43:29.736436 11959 net.cpp:165] Memory required for data: 3301523680
I0531 15:43:29.736457 11959 layer_factory.hpp:77] Creating layer relu4_3
I0531 15:43:29.736464 11959 net.cpp:100] Creating Layer relu4_3
I0531 15:43:29.736466 11959 net.cpp:434] relu4_3 <- conv4_3
I0531 15:43:29.736486 11959 net.cpp:395] relu4_3 -> conv4_3 (in-place)
I0531 15:43:29.737149 11959 net.cpp:150] Setting up relu4_3
I0531 15:43:29.737157 11959 net.cpp:157] Top shape: 16 512 38 38 (11829248)
I0531 15:43:29.737160 11959 net.cpp:165] Memory required for data: 3348840672
I0531 15:43:29.737162 11959 layer_factory.hpp:77] Creating layer conv4_3_relu4_3_0_split
I0531 15:43:29.737182 11959 net.cpp:100] Creating Layer conv4_3_relu4_3_0_split
I0531 15:43:29.737185 11959 net.cpp:434] conv4_3_relu4_3_0_split <- conv4_3
I0531 15:43:29.737190 11959 net.cpp:408] conv4_3_relu4_3_0_split -> conv4_3_relu4_3_0_split_0
I0531 15:43:29.737195 11959 net.cpp:408] conv4_3_relu4_3_0_split -> conv4_3_relu4_3_0_split_1
I0531 15:43:29.737226 11959 net.cpp:150] Setting up conv4_3_relu4_3_0_split
I0531 15:43:29.737229 11959 net.cpp:157] Top shape: 16 512 38 38 (11829248)
I0531 15:43:29.737232 11959 net.cpp:157] Top shape: 16 512 38 38 (11829248)
I0531 15:43:29.737234 11959 net.cpp:165] Memory required for data: 3443474656
I0531 15:43:29.737236 11959 layer_factory.hpp:77] Creating layer pool4
I0531 15:43:29.737241 11959 net.cpp:100] Creating Layer pool4
I0531 15:43:29.737242 11959 net.cpp:434] pool4 <- conv4_3_relu4_3_0_split_0
I0531 15:43:29.737246 11959 net.cpp:408] pool4 -> pool4
I0531 15:43:29.737287 11959 net.cpp:150] Setting up pool4
I0531 15:43:29.737291 11959 net.cpp:157] Top shape: 16 512 19 19 (2957312)
I0531 15:43:29.737306 11959 net.cpp:165] Memory required for data: 3455303904
I0531 15:43:29.737308 11959 layer_factory.hpp:77] Creating layer conv5_1
I0531 15:43:29.737318 11959 net.cpp:100] Creating Layer conv5_1
I0531 15:43:29.737320 11959 net.cpp:434] conv5_1 <- pool4
I0531 15:43:29.737326 11959 net.cpp:408] conv5_1 -> conv5_1
I0531 15:43:29.749219 11959 net.cpp:150] Setting up conv5_1
I0531 15:43:29.749238 11959 net.cpp:157] Top shape: 16 512 19 19 (2957312)
I0531 15:43:29.749240 11959 net.cpp:165] Memory required for data: 3467133152
I0531 15:43:29.749246 11959 layer_factory.hpp:77] Creating layer relu5_1
I0531 15:43:29.749253 11959 net.cpp:100] Creating Layer relu5_1
I0531 15:43:29.749256 11959 net.cpp:434] relu5_1 <- conv5_1
I0531 15:43:29.749263 11959 net.cpp:395] relu5_1 -> conv5_1 (in-place)
I0531 15:43:29.749558 11959 net.cpp:150] Setting up relu5_1
I0531 15:43:29.749564 11959 net.cpp:157] Top shape: 16 512 19 19 (2957312)
I0531 15:43:29.749567 11959 net.cpp:165] Memory required for data: 3478962400
I0531 15:43:29.749569 11959 layer_factory.hpp:77] Creating layer conv5_2
I0531 15:43:29.749578 11959 net.cpp:100] Creating Layer conv5_2
I0531 15:43:29.749580 11959 net.cpp:434] conv5_2 <- conv5_1
I0531 15:43:29.749585 11959 net.cpp:408] conv5_2 -> conv5_2
I0531 15:43:29.761791 11959 net.cpp:150] Setting up conv5_2
I0531 15:43:29.761811 11959 net.cpp:157] Top shape: 16 512 19 19 (2957312)
I0531 15:43:29.761813 11959 net.cpp:165] Memory required for data: 3490791648
I0531 15:43:29.761834 11959 layer_factory.hpp:77] Creating layer relu5_2
I0531 15:43:29.761842 11959 net.cpp:100] Creating Layer relu5_2
I0531 15:43:29.761847 11959 net.cpp:434] relu5_2 <- conv5_2
I0531 15:43:29.761852 11959 net.cpp:395] relu5_2 -> conv5_2 (in-place)
I0531 15:43:29.762159 11959 net.cpp:150] Setting up relu5_2
I0531 15:43:29.762166 11959 net.cpp:157] Top shape: 16 512 19 19 (2957312)
I0531 15:43:29.762182 11959 net.cpp:165] Memory required for data: 3502620896
I0531 15:43:29.762184 11959 layer_factory.hpp:77] Creating layer conv5_3
I0531 15:43:29.762192 11959 net.cpp:100] Creating Layer conv5_3
I0531 15:43:29.762194 11959 net.cpp:434] conv5_3 <- conv5_2
I0531 15:43:29.762199 11959 net.cpp:408] conv5_3 -> conv5_3
I0531 15:43:29.774093 11959 net.cpp:150] Setting up conv5_3
I0531 15:43:29.774111 11959 net.cpp:157] Top shape: 16 512 19 19 (2957312)
I0531 15:43:29.774113 11959 net.cpp:165] Memory required for data: 3514450144
I0531 15:43:29.774119 11959 layer_factory.hpp:77] Creating layer relu5_3
I0531 15:43:29.774132 11959 net.cpp:100] Creating Layer relu5_3
I0531 15:43:29.774134 11959 net.cpp:434] relu5_3 <- conv5_3
I0531 15:43:29.774140 11959 net.cpp:395] relu5_3 -> conv5_3 (in-place)
I0531 15:43:29.774786 11959 net.cpp:150] Setting up relu5_3
I0531 15:43:29.774794 11959 net.cpp:157] Top shape: 16 512 19 19 (2957312)
I0531 15:43:29.774797 11959 net.cpp:165] Memory required for data: 3526279392
I0531 15:43:29.774799 11959 layer_factory.hpp:77] Creating layer pool5
I0531 15:43:29.774806 11959 net.cpp:100] Creating Layer pool5
I0531 15:43:29.774808 11959 net.cpp:434] pool5 <- conv5_3
I0531 15:43:29.774812 11959 net.cpp:408] pool5 -> pool5
I0531 15:43:29.774845 11959 net.cpp:150] Setting up pool5
I0531 15:43:29.774850 11959 net.cpp:157] Top shape: 16 512 19 19 (2957312)
I0531 15:43:29.774852 11959 net.cpp:165] Memory required for data: 3538108640
I0531 15:43:29.774854 11959 layer_factory.hpp:77] Creating layer fc6
I0531 15:43:29.774863 11959 net.cpp:100] Creating Layer fc6
I0531 15:43:29.774864 11959 net.cpp:434] fc6 <- pool5
I0531 15:43:29.774868 11959 net.cpp:408] fc6 -> fc6
I0531 15:43:29.795362 11959 net.cpp:150] Setting up fc6
I0531 15:43:29.795383 11959 net.cpp:157] Top shape: 16 1024 19 19 (5914624)
I0531 15:43:29.795385 11959 net.cpp:165] Memory required for data: 3561767136
I0531 15:43:29.795392 11959 layer_factory.hpp:77] Creating layer relu6
I0531 15:43:29.795400 11959 net.cpp:100] Creating Layer relu6
I0531 15:43:29.795403 11959 net.cpp:434] relu6 <- fc6
I0531 15:43:29.795408 11959 net.cpp:395] relu6 -> fc6 (in-place)
I0531 15:43:29.795795 11959 net.cpp:150] Setting up relu6
I0531 15:43:29.795804 11959 net.cpp:157] Top shape: 16 1024 19 19 (5914624)
I0531 15:43:29.795805 11959 net.cpp:165] Memory required for data: 3585425632
I0531 15:43:29.795807 11959 layer_factory.hpp:77] Creating layer fc7
I0531 15:43:29.795814 11959 net.cpp:100] Creating Layer fc7
I0531 15:43:29.795819 11959 net.cpp:434] fc7 <- fc6
I0531 15:43:29.795823 11959 net.cpp:408] fc7 -> fc7
I0531 15:43:29.802109 11959 net.cpp:150] Setting up fc7
I0531 15:43:29.802126 11959 net.cpp:157] Top shape: 16 1024 19 19 (5914624)
I0531 15:43:29.802129 11959 net.cpp:165] Memory required for data: 3609084128
I0531 15:43:29.802135 11959 layer_factory.hpp:77] Creating layer relu7
I0531 15:43:29.802142 11959 net.cpp:100] Creating Layer relu7
I0531 15:43:29.802146 11959 net.cpp:434] relu7 <- fc7
I0531 15:43:29.802163 11959 net.cpp:395] relu7 -> fc7 (in-place)
I0531 15:43:29.802531 11959 net.cpp:150] Setting up relu7
I0531 15:43:29.802538 11959 net.cpp:157] Top shape: 16 1024 19 19 (5914624)
I0531 15:43:29.802542 11959 net.cpp:165] Memory required for data: 3632742624
I0531 15:43:29.802546 11959 layer_factory.hpp:77] Creating layer fc7_relu7_0_split
I0531 15:43:29.802551 11959 net.cpp:100] Creating Layer fc7_relu7_0_split
I0531 15:43:29.802556 11959 net.cpp:434] fc7_relu7_0_split <- fc7
I0531 15:43:29.802584 11959 net.cpp:408] fc7_relu7_0_split -> fc7_relu7_0_split_0
I0531 15:43:29.802592 11959 net.cpp:408] fc7_relu7_0_split -> fc7_relu7_0_split_1
I0531 15:43:29.802604 11959 net.cpp:408] fc7_relu7_0_split -> fc7_relu7_0_split_2
I0531 15:43:29.802611 11959 net.cpp:408] fc7_relu7_0_split -> fc7_relu7_0_split_3
I0531 15:43:29.802709 11959 net.cpp:150] Setting up fc7_relu7_0_split
I0531 15:43:29.802716 11959 net.cpp:157] Top shape: 16 1024 19 19 (5914624)
I0531 15:43:29.802719 11959 net.cpp:157] Top shape: 16 1024 19 19 (5914624)
I0531 15:43:29.802734 11959 net.cpp:157] Top shape: 16 1024 19 19 (5914624)
I0531 15:43:29.802736 11959 net.cpp:157] Top shape: 16 1024 19 19 (5914624)
I0531 15:43:29.802738 11959 net.cpp:165] Memory required for data: 3727376608
I0531 15:43:29.802740 11959 layer_factory.hpp:77] Creating layer conv6_1
I0531 15:43:29.802762 11959 net.cpp:100] Creating Layer conv6_1
I0531 15:43:29.802765 11959 net.cpp:434] conv6_1 <- fc7_relu7_0_split_0
I0531 15:43:29.802773 11959 net.cpp:408] conv6_1 -> conv6_1
I0531 15:43:29.806346 11959 net.cpp:150] Setting up conv6_1
I0531 15:43:29.806361 11959 net.cpp:157] Top shape: 16 256 19 19 (1478656)
I0531 15:43:29.806365 11959 net.cpp:165] Memory required for data: 3733291232
I0531 15:43:29.806370 11959 layer_factory.hpp:77] Creating layer conv6_1_relu
I0531 15:43:29.806388 11959 net.cpp:100] Creating Layer conv6_1_relu
I0531 15:43:29.806392 11959 net.cpp:434] conv6_1_relu <- conv6_1
I0531 15:43:29.806398 11959 net.cpp:395] conv6_1_relu -> conv6_1 (in-place)
I0531 15:43:29.807000 11959 net.cpp:150] Setting up conv6_1_relu
I0531 15:43:29.807008 11959 net.cpp:157] Top shape: 16 256 19 19 (1478656)
I0531 15:43:29.807011 11959 net.cpp:165] Memory required for data: 3739205856
I0531 15:43:29.807014 11959 layer_factory.hpp:77] Creating layer conv6_2
I0531 15:43:29.807039 11959 net.cpp:100] Creating Layer conv6_2
I0531 15:43:29.807042 11959 net.cpp:434] conv6_2 <- conv6_1
I0531 15:43:29.807047 11959 net.cpp:408] conv6_2 -> conv6_2
I0531 15:43:29.813616 11959 net.cpp:150] Setting up conv6_2
I0531 15:43:29.813632 11959 net.cpp:157] Top shape: 16 512 10 10 (819200)
I0531 15:43:29.813634 11959 net.cpp:165] Memory required for data: 3742482656
I0531 15:43:29.813644 11959 layer_factory.hpp:77] Creating layer conv6_2_relu
I0531 15:43:29.813652 11959 net.cpp:100] Creating Layer conv6_2_relu
I0531 15:43:29.813655 11959 net.cpp:434] conv6_2_relu <- conv6_2
I0531 15:43:29.813659 11959 net.cpp:395] conv6_2_relu -> conv6_2 (in-place)
I0531 15:43:29.813961 11959 net.cpp:150] Setting up conv6_2_relu
I0531 15:43:29.813968 11959 net.cpp:157] Top shape: 16 512 10 10 (819200)
I0531 15:43:29.813971 11959 net.cpp:165] Memory required for data: 3745759456
I0531 15:43:29.813973 11959 layer_factory.hpp:77] Creating layer conv6_2_conv6_2_relu_0_split
I0531 15:43:29.813978 11959 net.cpp:100] Creating Layer conv6_2_conv6_2_relu_0_split
I0531 15:43:29.813982 11959 net.cpp:434] conv6_2_conv6_2_relu_0_split <- conv6_2
I0531 15:43:29.813987 11959 net.cpp:408] conv6_2_conv6_2_relu_0_split -> conv6_2_conv6_2_relu_0_split_0
I0531 15:43:29.813990 11959 net.cpp:408] conv6_2_conv6_2_relu_0_split -> conv6_2_conv6_2_relu_0_split_1
I0531 15:43:29.813994 11959 net.cpp:408] conv6_2_conv6_2_relu_0_split -> conv6_2_conv6_2_relu_0_split_2
I0531 15:43:29.813998 11959 net.cpp:408] conv6_2_conv6_2_relu_0_split -> conv6_2_conv6_2_relu_0_split_3
I0531 15:43:29.814051 11959 net.cpp:150] Setting up conv6_2_conv6_2_relu_0_split
I0531 15:43:29.814055 11959 net.cpp:157] Top shape: 16 512 10 10 (819200)
I0531 15:43:29.814059 11959 net.cpp:157] Top shape: 16 512 10 10 (819200)
I0531 15:43:29.814060 11959 net.cpp:157] Top shape: 16 512 10 10 (819200)
I0531 15:43:29.814064 11959 net.cpp:157] Top shape: 16 512 10 10 (819200)
I0531 15:43:29.814065 11959 net.cpp:165] Memory required for data: 3758866656
I0531 15:43:29.814066 11959 layer_factory.hpp:77] Creating layer conv7_1
I0531 15:43:29.814074 11959 net.cpp:100] Creating Layer conv7_1
I0531 15:43:29.814077 11959 net.cpp:434] conv7_1 <- conv6_2_conv6_2_relu_0_split_0
I0531 15:43:29.814081 11959 net.cpp:408] conv7_1 -> conv7_1
I0531 15:43:29.817009 11959 net.cpp:150] Setting up conv7_1
I0531 15:43:29.817026 11959 net.cpp:157] Top shape: 16 128 10 10 (204800)
I0531 15:43:29.817029 11959 net.cpp:165] Memory required for data: 3759685856
I0531 15:43:29.817036 11959 layer_factory.hpp:77] Creating layer conv7_1_relu
I0531 15:43:29.817045 11959 net.cpp:100] Creating Layer conv7_1_relu
I0531 15:43:29.817049 11959 net.cpp:434] conv7_1_relu <- conv7_1
I0531 15:43:29.817054 11959 net.cpp:395] conv7_1_relu -> conv7_1 (in-place)
I0531 15:43:29.817376 11959 net.cpp:150] Setting up conv7_1_relu
I0531 15:43:29.817384 11959 net.cpp:157] Top shape: 16 128 10 10 (204800)
I0531 15:43:29.817386 11959 net.cpp:165] Memory required for data: 3760505056
I0531 15:43:29.817390 11959 layer_factory.hpp:77] Creating layer conv7_2
I0531 15:43:29.817400 11959 net.cpp:100] Creating Layer conv7_2
I0531 15:43:29.817404 11959 net.cpp:434] conv7_2 <- conv7_1
I0531 15:43:29.817409 11959 net.cpp:408] conv7_2 -> conv7_2
I0531 15:43:29.821926 11959 net.cpp:150] Setting up conv7_2
I0531 15:43:29.821949 11959 net.cpp:157] Top shape: 16 256 5 5 (102400)
I0531 15:43:29.821952 11959 net.cpp:165] Memory required for data: 3760914656
I0531 15:43:29.821962 11959 layer_factory.hpp:77] Creating layer conv7_2_relu
I0531 15:43:29.821972 11959 net.cpp:100] Creating Layer conv7_2_relu
I0531 15:43:29.821990 11959 net.cpp:434] conv7_2_relu <- conv7_2
I0531 15:43:29.822015 11959 net.cpp:395] conv7_2_relu -> conv7_2 (in-place)
I0531 15:43:29.822453 11959 net.cpp:150] Setting up conv7_2_relu
I0531 15:43:29.822463 11959 net.cpp:157] Top shape: 16 256 5 5 (102400)
I0531 15:43:29.822466 11959 net.cpp:165] Memory required for data: 3761324256
I0531 15:43:29.822470 11959 layer_factory.hpp:77] Creating layer conv7_2_conv7_2_relu_0_split
I0531 15:43:29.822475 11959 net.cpp:100] Creating Layer conv7_2_conv7_2_relu_0_split
I0531 15:43:29.822480 11959 net.cpp:434] conv7_2_conv7_2_relu_0_split <- conv7_2
I0531 15:43:29.822486 11959 net.cpp:408] conv7_2_conv7_2_relu_0_split -> conv7_2_conv7_2_relu_0_split_0
I0531 15:43:29.822494 11959 net.cpp:408] conv7_2_conv7_2_relu_0_split -> conv7_2_conv7_2_relu_0_split_1
I0531 15:43:29.822513 11959 net.cpp:408] conv7_2_conv7_2_relu_0_split -> conv7_2_conv7_2_relu_0_split_2
I0531 15:43:29.822522 11959 net.cpp:408] conv7_2_conv7_2_relu_0_split -> conv7_2_conv7_2_relu_0_split_3
I0531 15:43:29.822610 11959 net.cpp:150] Setting up conv7_2_conv7_2_relu_0_split
I0531 15:43:29.822615 11959 net.cpp:157] Top shape: 16 256 5 5 (102400)
I0531 15:43:29.822619 11959 net.cpp:157] Top shape: 16 256 5 5 (102400)
I0531 15:43:29.822624 11959 net.cpp:157] Top shape: 16 256 5 5 (102400)
I0531 15:43:29.822628 11959 net.cpp:157] Top shape: 16 256 5 5 (102400)
I0531 15:43:29.822630 11959 net.cpp:165] Memory required for data: 3762962656
I0531 15:43:29.822633 11959 layer_factory.hpp:77] Creating layer conv8_1
I0531 15:43:29.822645 11959 net.cpp:100] Creating Layer conv8_1
I0531 15:43:29.822649 11959 net.cpp:434] conv8_1 <- conv7_2_conv7_2_relu_0_split_0
I0531 15:43:29.822669 11959 net.cpp:408] conv8_1 -> conv8_1
I0531 15:43:29.824909 11959 net.cpp:150] Setting up conv8_1
I0531 15:43:29.824926 11959 net.cpp:157] Top shape: 16 128 5 5 (51200)
I0531 15:43:29.824930 11959 net.cpp:165] Memory required for data: 3763167456
I0531 15:43:29.824952 11959 layer_factory.hpp:77] Creating layer conv8_1_relu
I0531 15:43:29.824961 11959 net.cpp:100] Creating Layer conv8_1_relu
I0531 15:43:29.824980 11959 net.cpp:434] conv8_1_relu <- conv8_1
I0531 15:43:29.824985 11959 net.cpp:395] conv8_1_relu -> conv8_1 (in-place)
I0531 15:43:29.825875 11959 net.cpp:150] Setting up conv8_1_relu
I0531 15:43:29.825886 11959 net.cpp:157] Top shape: 16 128 5 5 (51200)
I0531 15:43:29.825891 11959 net.cpp:165] Memory required for data: 3763372256
I0531 15:43:29.825894 11959 layer_factory.hpp:77] Creating layer conv8_2
I0531 15:43:29.825922 11959 net.cpp:100] Creating Layer conv8_2
I0531 15:43:29.825927 11959 net.cpp:434] conv8_2 <- conv8_1
I0531 15:43:29.825933 11959 net.cpp:408] conv8_2 -> conv8_2
I0531 15:43:29.831053 11959 net.cpp:150] Setting up conv8_2
I0531 15:43:29.831065 11959 net.cpp:157] Top shape: 16 256 3 3 (36864)
I0531 15:43:29.831068 11959 net.cpp:165] Memory required for data: 3763519712
I0531 15:43:29.831073 11959 layer_factory.hpp:77] Creating layer conv8_2_relu
I0531 15:43:29.831079 11959 net.cpp:100] Creating Layer conv8_2_relu
I0531 15:43:29.831081 11959 net.cpp:434] conv8_2_relu <- conv8_2
I0531 15:43:29.831084 11959 net.cpp:395] conv8_2_relu -> conv8_2 (in-place)
I0531 15:43:29.831398 11959 net.cpp:150] Setting up conv8_2_relu
I0531 15:43:29.831405 11959 net.cpp:157] Top shape: 16 256 3 3 (36864)
I0531 15:43:29.831408 11959 net.cpp:165] Memory required for data: 3763667168
I0531 15:43:29.831409 11959 layer_factory.hpp:77] Creating layer conv8_2_conv8_2_relu_0_split
I0531 15:43:29.831413 11959 net.cpp:100] Creating Layer conv8_2_conv8_2_relu_0_split
I0531 15:43:29.831416 11959 net.cpp:434] conv8_2_conv8_2_relu_0_split <- conv8_2
I0531 15:43:29.831421 11959 net.cpp:408] conv8_2_conv8_2_relu_0_split -> conv8_2_conv8_2_relu_0_split_0
I0531 15:43:29.831425 11959 net.cpp:408] conv8_2_conv8_2_relu_0_split -> conv8_2_conv8_2_relu_0_split_1
I0531 15:43:29.831431 11959 net.cpp:408] conv8_2_conv8_2_relu_0_split -> conv8_2_conv8_2_relu_0_split_2
I0531 15:43:29.831435 11959 net.cpp:408] conv8_2_conv8_2_relu_0_split -> conv8_2_conv8_2_relu_0_split_3
I0531 15:43:29.831498 11959 net.cpp:150] Setting up conv8_2_conv8_2_relu_0_split
I0531 15:43:29.831502 11959 net.cpp:157] Top shape: 16 256 3 3 (36864)
I0531 15:43:29.831506 11959 net.cpp:157] Top shape: 16 256 3 3 (36864)
I0531 15:43:29.831508 11959 net.cpp:157] Top shape: 16 256 3 3 (36864)
I0531 15:43:29.831511 11959 net.cpp:157] Top shape: 16 256 3 3 (36864)
I0531 15:43:29.831512 11959 net.cpp:165] Memory required for data: 3764256992
I0531 15:43:29.831514 11959 layer_factory.hpp:77] Creating layer conv9_1
I0531 15:43:29.831521 11959 net.cpp:100] Creating Layer conv9_1
I0531 15:43:29.831523 11959 net.cpp:434] conv9_1 <- conv8_2_conv8_2_relu_0_split_0
I0531 15:43:29.831528 11959 net.cpp:408] conv9_1 -> conv9_1
I0531 15:43:29.833030 11959 net.cpp:150] Setting up conv9_1
I0531 15:43:29.833039 11959 net.cpp:157] Top shape: 16 128 3 3 (18432)
I0531 15:43:29.833042 11959 net.cpp:165] Memory required for data: 3764330720
I0531 15:43:29.833046 11959 layer_factory.hpp:77] Creating layer conv9_1_relu
I0531 15:43:29.833050 11959 net.cpp:100] Creating Layer conv9_1_relu
I0531 15:43:29.833052 11959 net.cpp:434] conv9_1_relu <- conv9_1
I0531 15:43:29.833056 11959 net.cpp:395] conv9_1_relu -> conv9_1 (in-place)
I0531 15:43:29.833384 11959 net.cpp:150] Setting up conv9_1_relu
I0531 15:43:29.833389 11959 net.cpp:157] Top shape: 16 128 3 3 (18432)
I0531 15:43:29.833391 11959 net.cpp:165] Memory required for data: 3764404448
I0531 15:43:29.833393 11959 layer_factory.hpp:77] Creating layer conv9_2
I0531 15:43:29.833400 11959 net.cpp:100] Creating Layer conv9_2
I0531 15:43:29.833402 11959 net.cpp:434] conv9_2 <- conv9_1
I0531 15:43:29.833407 11959 net.cpp:408] conv9_2 -> conv9_2
I0531 15:43:29.837087 11959 net.cpp:150] Setting up conv9_2
I0531 15:43:29.837102 11959 net.cpp:157] Top shape: 16 256 1 1 (4096)
I0531 15:43:29.837105 11959 net.cpp:165] Memory required for data: 3764420832
I0531 15:43:29.837111 11959 layer_factory.hpp:77] Creating layer conv9_2_relu
I0531 15:43:29.837118 11959 net.cpp:100] Creating Layer conv9_2_relu
I0531 15:43:29.837122 11959 net.cpp:434] conv9_2_relu <- conv9_2
I0531 15:43:29.837126 11959 net.cpp:395] conv9_2_relu -> conv9_2 (in-place)
I0531 15:43:29.837870 11959 net.cpp:150] Setting up conv9_2_relu
I0531 15:43:29.837882 11959 net.cpp:157] Top shape: 16 256 1 1 (4096)
I0531 15:43:29.837884 11959 net.cpp:165] Memory required for data: 3764437216
I0531 15:43:29.837888 11959 layer_factory.hpp:77] Creating layer conv9_2_conv9_2_relu_0_split
I0531 15:43:29.837893 11959 net.cpp:100] Creating Layer conv9_2_conv9_2_relu_0_split
I0531 15:43:29.837895 11959 net.cpp:434] conv9_2_conv9_2_relu_0_split <- conv9_2
I0531 15:43:29.837900 11959 net.cpp:408] conv9_2_conv9_2_relu_0_split -> conv9_2_conv9_2_relu_0_split_0
I0531 15:43:29.837905 11959 net.cpp:408] conv9_2_conv9_2_relu_0_split -> conv9_2_conv9_2_relu_0_split_1
I0531 15:43:29.837910 11959 net.cpp:408] conv9_2_conv9_2_relu_0_split -> conv9_2_conv9_2_relu_0_split_2
I0531 15:43:29.837954 11959 net.cpp:150] Setting up conv9_2_conv9_2_relu_0_split
I0531 15:43:29.837960 11959 net.cpp:157] Top shape: 16 256 1 1 (4096)
I0531 15:43:29.837961 11959 net.cpp:157] Top shape: 16 256 1 1 (4096)
I0531 15:43:29.837965 11959 net.cpp:157] Top shape: 16 256 1 1 (4096)
I0531 15:43:29.837966 11959 net.cpp:165] Memory required for data: 3764486368
I0531 15:43:29.837968 11959 layer_factory.hpp:77] Creating layer conv4_3_norm
I0531 15:43:29.837973 11959 net.cpp:100] Creating Layer conv4_3_norm
I0531 15:43:29.837976 11959 net.cpp:434] conv4_3_norm <- conv4_3_relu4_3_0_split_1
I0531 15:43:29.837980 11959 net.cpp:408] conv4_3_norm -> conv4_3_norm
I0531 15:43:29.838104 11959 net.cpp:150] Setting up conv4_3_norm
I0531 15:43:29.838109 11959 net.cpp:157] Top shape: 16 512 38 38 (11829248)
I0531 15:43:29.838111 11959 net.cpp:165] Memory required for data: 3811803360
I0531 15:43:29.838114 11959 layer_factory.hpp:77] Creating layer conv4_3_norm_conv4_3_norm_0_split
I0531 15:43:29.838119 11959 net.cpp:100] Creating Layer conv4_3_norm_conv4_3_norm_0_split
I0531 15:43:29.838131 11959 net.cpp:434] conv4_3_norm_conv4_3_norm_0_split <- conv4_3_norm
I0531 15:43:29.838136 11959 net.cpp:408] conv4_3_norm_conv4_3_norm_0_split -> conv4_3_norm_conv4_3_norm_0_split_0
I0531 15:43:29.838140 11959 net.cpp:408] conv4_3_norm_conv4_3_norm_0_split -> conv4_3_norm_conv4_3_norm_0_split_1
I0531 15:43:29.838145 11959 net.cpp:408] conv4_3_norm_conv4_3_norm_0_split -> conv4_3_norm_conv4_3_norm_0_split_2
I0531 15:43:29.838178 11959 net.cpp:150] Setting up conv4_3_norm_conv4_3_norm_0_split
I0531 15:43:29.838183 11959 net.cpp:157] Top shape: 16 512 38 38 (11829248)
I0531 15:43:29.838186 11959 net.cpp:157] Top shape: 16 512 38 38 (11829248)
I0531 15:43:29.838188 11959 net.cpp:157] Top shape: 16 512 38 38 (11829248)
I0531 15:43:29.838189 11959 net.cpp:165] Memory required for data: 3953754336
I0531 15:43:29.838192 11959 layer_factory.hpp:77] Creating layer conv4_3_norm_mbox_loc
I0531 15:43:29.838199 11959 net.cpp:100] Creating Layer conv4_3_norm_mbox_loc
I0531 15:43:29.838201 11959 net.cpp:434] conv4_3_norm_mbox_loc <- conv4_3_norm_conv4_3_norm_0_split_0
I0531 15:43:29.838205 11959 net.cpp:408] conv4_3_norm_mbox_loc -> conv4_3_norm_mbox_loc
I0531 15:43:29.840147 11959 net.cpp:150] Setting up conv4_3_norm_mbox_loc
I0531 15:43:29.840155 11959 net.cpp:157] Top shape: 16 16 38 38 (369664)
I0531 15:43:29.840157 11959 net.cpp:165] Memory required for data: 3955232992
I0531 15:43:29.840162 11959 layer_factory.hpp:77] Creating layer conv4_3_norm_mbox_loc_perm
I0531 15:43:29.840167 11959 net.cpp:100] Creating Layer conv4_3_norm_mbox_loc_perm
I0531 15:43:29.840170 11959 net.cpp:434] conv4_3_norm_mbox_loc_perm <- conv4_3_norm_mbox_loc
I0531 15:43:29.840174 11959 net.cpp:408] conv4_3_norm_mbox_loc_perm -> conv4_3_norm_mbox_loc_perm
I0531 15:43:29.840258 11959 net.cpp:150] Setting up conv4_3_norm_mbox_loc_perm
I0531 15:43:29.840263 11959 net.cpp:157] Top shape: 16 38 38 16 (369664)
I0531 15:43:29.840265 11959 net.cpp:165] Memory required for data: 3956711648
I0531 15:43:29.840267 11959 layer_factory.hpp:77] Creating layer conv4_3_norm_mbox_loc_flat
I0531 15:43:29.840271 11959 net.cpp:100] Creating Layer conv4_3_norm_mbox_loc_flat
I0531 15:43:29.840276 11959 net.cpp:434] conv4_3_norm_mbox_loc_flat <- conv4_3_norm_mbox_loc_perm
I0531 15:43:29.840279 11959 net.cpp:408] conv4_3_norm_mbox_loc_flat -> conv4_3_norm_mbox_loc_flat
I0531 15:43:29.840306 11959 net.cpp:150] Setting up conv4_3_norm_mbox_loc_flat
I0531 15:43:29.840312 11959 net.cpp:157] Top shape: 16 23104 (369664)
I0531 15:43:29.840313 11959 net.cpp:165] Memory required for data: 3958190304
I0531 15:43:29.840315 11959 layer_factory.hpp:77] Creating layer conv4_3_norm_mbox_conf
I0531 15:43:29.840340 11959 net.cpp:100] Creating Layer conv4_3_norm_mbox_conf
I0531 15:43:29.840344 11959 net.cpp:434] conv4_3_norm_mbox_conf <- conv4_3_norm_conv4_3_norm_0_split_1
I0531 15:43:29.840348 11959 net.cpp:408] conv4_3_norm_mbox_conf -> conv4_3_norm_mbox_conf
I0531 15:43:29.844080 11959 net.cpp:150] Setting up conv4_3_norm_mbox_conf
I0531 15:43:29.844092 11959 net.cpp:157] Top shape: 16 84 38 38 (1940736)
I0531 15:43:29.844095 11959 net.cpp:165] Memory required for data: 3965953248
I0531 15:43:29.844100 11959 layer_factory.hpp:77] Creating layer conv4_3_norm_mbox_conf_perm
I0531 15:43:29.844105 11959 net.cpp:100] Creating Layer conv4_3_norm_mbox_conf_perm
I0531 15:43:29.844108 11959 net.cpp:434] conv4_3_norm_mbox_conf_perm <- conv4_3_norm_mbox_conf
I0531 15:43:29.844113 11959 net.cpp:408] conv4_3_norm_mbox_conf_perm -> conv4_3_norm_mbox_conf_perm
I0531 15:43:29.844197 11959 net.cpp:150] Setting up conv4_3_norm_mbox_conf_perm
I0531 15:43:29.844200 11959 net.cpp:157] Top shape: 16 38 38 84 (1940736)
I0531 15:43:29.844202 11959 net.cpp:165] Memory required for data: 3973716192
I0531 15:43:29.844204 11959 layer_factory.hpp:77] Creating layer conv4_3_norm_mbox_conf_flat
I0531 15:43:29.844208 11959 net.cpp:100] Creating Layer conv4_3_norm_mbox_conf_flat
I0531 15:43:29.844211 11959 net.cpp:434] conv4_3_norm_mbox_conf_flat <- conv4_3_norm_mbox_conf_perm
I0531 15:43:29.844215 11959 net.cpp:408] conv4_3_norm_mbox_conf_flat -> conv4_3_norm_mbox_conf_flat
I0531 15:43:29.844241 11959 net.cpp:150] Setting up conv4_3_norm_mbox_conf_flat
I0531 15:43:29.844245 11959 net.cpp:157] Top shape: 16 121296 (1940736)
I0531 15:43:29.844249 11959 net.cpp:165] Memory required for data: 3981479136
I0531 15:43:29.844250 11959 layer_factory.hpp:77] Creating layer conv4_3_norm_mbox_priorbox
I0531 15:43:29.844254 11959 net.cpp:100] Creating Layer conv4_3_norm_mbox_priorbox
I0531 15:43:29.844257 11959 net.cpp:434] conv4_3_norm_mbox_priorbox <- conv4_3_norm_conv4_3_norm_0_split_2
I0531 15:43:29.844260 11959 net.cpp:434] conv4_3_norm_mbox_priorbox <- data_data_0_split_1
I0531 15:43:29.844265 11959 net.cpp:408] conv4_3_norm_mbox_priorbox -> conv4_3_norm_mbox_priorbox
I0531 15:43:29.844287 11959 net.cpp:150] Setting up conv4_3_norm_mbox_priorbox
I0531 15:43:29.844291 11959 net.cpp:157] Top shape: 1 2 23104 (46208)
I0531 15:43:29.844295 11959 net.cpp:165] Memory required for data: 3981663968
I0531 15:43:29.844318 11959 layer_factory.hpp:77] Creating layer fc7_mbox_loc
I0531 15:43:29.844324 11959 net.cpp:100] Creating Layer fc7_mbox_loc
I0531 15:43:29.844328 11959 net.cpp:434] fc7_mbox_loc <- fc7_relu7_0_split_1
I0531 15:43:29.844332 11959 net.cpp:408] fc7_mbox_loc -> fc7_mbox_loc
I0531 15:43:29.848482 11959 net.cpp:150] Setting up fc7_mbox_loc
I0531 15:43:29.848536 11959 net.cpp:157] Top shape: 16 24 19 19 (138624)
I0531 15:43:29.848539 11959 net.cpp:165] Memory required for data: 3982218464
I0531 15:43:29.848556 11959 layer_factory.hpp:77] Creating layer fc7_mbox_loc_perm
I0531 15:43:29.848572 11959 net.cpp:100] Creating Layer fc7_mbox_loc_perm
I0531 15:43:29.848580 11959 net.cpp:434] fc7_mbox_loc_perm <- fc7_mbox_loc
I0531 15:43:29.848592 11959 net.cpp:408] fc7_mbox_loc_perm -> fc7_mbox_loc_perm
I0531 15:43:29.848791 11959 net.cpp:150] Setting up fc7_mbox_loc_perm
I0531 15:43:29.848798 11959 net.cpp:157] Top shape: 16 19 19 24 (138624)
I0531 15:43:29.848800 11959 net.cpp:165] Memory required for data: 3982772960
I0531 15:43:29.848803 11959 layer_factory.hpp:77] Creating layer fc7_mbox_loc_flat
I0531 15:43:29.848810 11959 net.cpp:100] Creating Layer fc7_mbox_loc_flat
I0531 15:43:29.848814 11959 net.cpp:434] fc7_mbox_loc_flat <- fc7_mbox_loc_perm
I0531 15:43:29.848819 11959 net.cpp:408] fc7_mbox_loc_flat -> fc7_mbox_loc_flat
I0531 15:43:29.848863 11959 net.cpp:150] Setting up fc7_mbox_loc_flat
I0531 15:43:29.848870 11959 net.cpp:157] Top shape: 16 8664 (138624)
I0531 15:43:29.848872 11959 net.cpp:165] Memory required for data: 3983327456
I0531 15:43:29.848875 11959 layer_factory.hpp:77] Creating layer fc7_mbox_conf
I0531 15:43:29.848888 11959 net.cpp:100] Creating Layer fc7_mbox_conf
I0531 15:43:29.848896 11959 net.cpp:434] fc7_mbox_conf <- fc7_relu7_0_split_2
I0531 15:43:29.848906 11959 net.cpp:408] fc7_mbox_conf -> fc7_mbox_conf
I0531 15:43:29.858492 11959 net.cpp:150] Setting up fc7_mbox_conf
I0531 15:43:29.858510 11959 net.cpp:157] Top shape: 16 126 19 19 (727776)
I0531 15:43:29.858515 11959 net.cpp:165] Memory required for data: 3986238560
I0531 15:43:29.858520 11959 layer_factory.hpp:77] Creating layer fc7_mbox_conf_perm
I0531 15:43:29.858527 11959 net.cpp:100] Creating Layer fc7_mbox_conf_perm
I0531 15:43:29.858531 11959 net.cpp:434] fc7_mbox_conf_perm <- fc7_mbox_conf
I0531 15:43:29.858537 11959 net.cpp:408] fc7_mbox_conf_perm -> fc7_mbox_conf_perm
I0531 15:43:29.858646 11959 net.cpp:150] Setting up fc7_mbox_conf_perm
I0531 15:43:29.858652 11959 net.cpp:157] Top shape: 16 19 19 126 (727776)
I0531 15:43:29.858654 11959 net.cpp:165] Memory required for data: 3989149664
I0531 15:43:29.858657 11959 layer_factory.hpp:77] Creating layer fc7_mbox_conf_flat
I0531 15:43:29.858662 11959 net.cpp:100] Creating Layer fc7_mbox_conf_flat
I0531 15:43:29.858664 11959 net.cpp:434] fc7_mbox_conf_flat <- fc7_mbox_conf_perm
I0531 15:43:29.858669 11959 net.cpp:408] fc7_mbox_conf_flat -> fc7_mbox_conf_flat
I0531 15:43:29.858687 11959 net.cpp:150] Setting up fc7_mbox_conf_flat
I0531 15:43:29.858691 11959 net.cpp:157] Top shape: 16 45486 (727776)
I0531 15:43:29.858703 11959 net.cpp:165] Memory required for data: 3992060768
I0531 15:43:29.858705 11959 layer_factory.hpp:77] Creating layer fc7_mbox_priorbox
I0531 15:43:29.858711 11959 net.cpp:100] Creating Layer fc7_mbox_priorbox
I0531 15:43:29.858714 11959 net.cpp:434] fc7_mbox_priorbox <- fc7_relu7_0_split_3
I0531 15:43:29.858719 11959 net.cpp:434] fc7_mbox_priorbox <- data_data_0_split_2
I0531 15:43:29.858726 11959 net.cpp:408] fc7_mbox_priorbox -> fc7_mbox_priorbox
I0531 15:43:29.858750 11959 net.cpp:150] Setting up fc7_mbox_priorbox
I0531 15:43:29.858755 11959 net.cpp:157] Top shape: 1 2 8664 (17328)
I0531 15:43:29.858758 11959 net.cpp:165] Memory required for data: 3992130080
I0531 15:43:29.858762 11959 layer_factory.hpp:77] Creating layer conv6_2_mbox_loc
I0531 15:43:29.858772 11959 net.cpp:100] Creating Layer conv6_2_mbox_loc
I0531 15:43:29.858777 11959 net.cpp:434] conv6_2_mbox_loc <- conv6_2_conv6_2_relu_0_split_1
I0531 15:43:29.858781 11959 net.cpp:408] conv6_2_mbox_loc -> conv6_2_mbox_loc
I0531 15:43:29.860927 11959 net.cpp:150] Setting up conv6_2_mbox_loc
I0531 15:43:29.860939 11959 net.cpp:157] Top shape: 16 24 10 10 (38400)
I0531 15:43:29.860940 11959 net.cpp:165] Memory required for data: 3992283680
I0531 15:43:29.860945 11959 layer_factory.hpp:77] Creating layer conv6_2_mbox_loc_perm
I0531 15:43:29.860949 11959 net.cpp:100] Creating Layer conv6_2_mbox_loc_perm
I0531 15:43:29.860952 11959 net.cpp:434] conv6_2_mbox_loc_perm <- conv6_2_mbox_loc
I0531 15:43:29.860957 11959 net.cpp:408] conv6_2_mbox_loc_perm -> conv6_2_mbox_loc_perm
I0531 15:43:29.861057 11959 net.cpp:150] Setting up conv6_2_mbox_loc_perm
I0531 15:43:29.861063 11959 net.cpp:157] Top shape: 16 10 10 24 (38400)
I0531 15:43:29.861066 11959 net.cpp:165] Memory required for data: 3992437280
I0531 15:43:29.861068 11959 layer_factory.hpp:77] Creating layer conv6_2_mbox_loc_flat
I0531 15:43:29.861071 11959 net.cpp:100] Creating Layer conv6_2_mbox_loc_flat
I0531 15:43:29.861074 11959 net.cpp:434] conv6_2_mbox_loc_flat <- conv6_2_mbox_loc_perm
I0531 15:43:29.861079 11959 net.cpp:408] conv6_2_mbox_loc_flat -> conv6_2_mbox_loc_flat
I0531 15:43:29.861100 11959 net.cpp:150] Setting up conv6_2_mbox_loc_flat
I0531 15:43:29.861105 11959 net.cpp:157] Top shape: 16 2400 (38400)
I0531 15:43:29.861109 11959 net.cpp:165] Memory required for data: 3992590880
I0531 15:43:29.861112 11959 layer_factory.hpp:77] Creating layer conv6_2_mbox_conf
I0531 15:43:29.861121 11959 net.cpp:100] Creating Layer conv6_2_mbox_conf
I0531 15:43:29.861124 11959 net.cpp:434] conv6_2_mbox_conf <- conv6_2_conv6_2_relu_0_split_2
I0531 15:43:29.861130 11959 net.cpp:408] conv6_2_mbox_conf -> conv6_2_mbox_conf
I0531 15:43:29.865720 11959 net.cpp:150] Setting up conv6_2_mbox_conf
I0531 15:43:29.865734 11959 net.cpp:157] Top shape: 16 126 10 10 (201600)
I0531 15:43:29.865737 11959 net.cpp:165] Memory required for data: 3993397280
I0531 15:43:29.865742 11959 layer_factory.hpp:77] Creating layer conv6_2_mbox_conf_perm
I0531 15:43:29.865751 11959 net.cpp:100] Creating Layer conv6_2_mbox_conf_perm
I0531 15:43:29.865754 11959 net.cpp:434] conv6_2_mbox_conf_perm <- conv6_2_mbox_conf
I0531 15:43:29.865758 11959 net.cpp:408] conv6_2_mbox_conf_perm -> conv6_2_mbox_conf_perm
I0531 15:43:29.865905 11959 net.cpp:150] Setting up conv6_2_mbox_conf_perm
I0531 15:43:29.865911 11959 net.cpp:157] Top shape: 16 10 10 126 (201600)
I0531 15:43:29.865914 11959 net.cpp:165] Memory required for data: 3994203680
I0531 15:43:29.865917 11959 layer_factory.hpp:77] Creating layer conv6_2_mbox_conf_flat
I0531 15:43:29.865923 11959 net.cpp:100] Creating Layer conv6_2_mbox_conf_flat
I0531 15:43:29.865928 11959 net.cpp:434] conv6_2_mbox_conf_flat <- conv6_2_mbox_conf_perm
I0531 15:43:29.865933 11959 net.cpp:408] conv6_2_mbox_conf_flat -> conv6_2_mbox_conf_flat
I0531 15:43:29.865986 11959 net.cpp:150] Setting up conv6_2_mbox_conf_flat
I0531 15:43:29.865993 11959 net.cpp:157] Top shape: 16 12600 (201600)
I0531 15:43:29.865996 11959 net.cpp:165] Memory required for data: 3995010080
I0531 15:43:29.865999 11959 layer_factory.hpp:77] Creating layer conv6_2_mbox_priorbox
I0531 15:43:29.866017 11959 net.cpp:100] Creating Layer conv6_2_mbox_priorbox
I0531 15:43:29.866021 11959 net.cpp:434] conv6_2_mbox_priorbox <- conv6_2_conv6_2_relu_0_split_3
I0531 15:43:29.866027 11959 net.cpp:434] conv6_2_mbox_priorbox <- data_data_0_split_3
I0531 15:43:29.866048 11959 net.cpp:408] conv6_2_mbox_priorbox -> conv6_2_mbox_priorbox
I0531 15:43:29.866075 11959 net.cpp:150] Setting up conv6_2_mbox_priorbox
I0531 15:43:29.866093 11959 net.cpp:157] Top shape: 1 2 2400 (4800)
I0531 15:43:29.866097 11959 net.cpp:165] Memory required for data: 3995029280
I0531 15:43:29.866101 11959 layer_factory.hpp:77] Creating layer conv7_2_mbox_loc
I0531 15:43:29.866111 11959 net.cpp:100] Creating Layer conv7_2_mbox_loc
I0531 15:43:29.866114 11959 net.cpp:434] conv7_2_mbox_loc <- conv7_2_conv7_2_relu_0_split_1
I0531 15:43:29.866120 11959 net.cpp:408] conv7_2_mbox_loc -> conv7_2_mbox_loc
I0531 15:43:29.868571 11959 net.cpp:150] Setting up conv7_2_mbox_loc
I0531 15:43:29.868582 11959 net.cpp:157] Top shape: 16 24 5 5 (9600)
I0531 15:43:29.868584 11959 net.cpp:165] Memory required for data: 3995067680
I0531 15:43:29.868589 11959 layer_factory.hpp:77] Creating layer conv7_2_mbox_loc_perm
I0531 15:43:29.868611 11959 net.cpp:100] Creating Layer conv7_2_mbox_loc_perm
I0531 15:43:29.868614 11959 net.cpp:434] conv7_2_mbox_loc_perm <- conv7_2_mbox_loc
I0531 15:43:29.868618 11959 net.cpp:408] conv7_2_mbox_loc_perm -> conv7_2_mbox_loc_perm
I0531 15:43:29.868741 11959 net.cpp:150] Setting up conv7_2_mbox_loc_perm
I0531 15:43:29.868746 11959 net.cpp:157] Top shape: 16 5 5 24 (9600)
I0531 15:43:29.868748 11959 net.cpp:165] Memory required for data: 3995106080
I0531 15:43:29.868751 11959 layer_factory.hpp:77] Creating layer conv7_2_mbox_loc_flat
I0531 15:43:29.868757 11959 net.cpp:100] Creating Layer conv7_2_mbox_loc_flat
I0531 15:43:29.868760 11959 net.cpp:434] conv7_2_mbox_loc_flat <- conv7_2_mbox_loc_perm
I0531 15:43:29.868765 11959 net.cpp:408] conv7_2_mbox_loc_flat -> conv7_2_mbox_loc_flat
I0531 15:43:29.868808 11959 net.cpp:150] Setting up conv7_2_mbox_loc_flat
I0531 15:43:29.868814 11959 net.cpp:157] Top shape: 16 600 (9600)
I0531 15:43:29.868832 11959 net.cpp:165] Memory required for data: 3995144480
I0531 15:43:29.868836 11959 layer_factory.hpp:77] Creating layer conv7_2_mbox_conf
I0531 15:43:29.868847 11959 net.cpp:100] Creating Layer conv7_2_mbox_conf
I0531 15:43:29.868852 11959 net.cpp:434] conv7_2_mbox_conf <- conv7_2_conv7_2_relu_0_split_2
I0531 15:43:29.868896 11959 net.cpp:408] conv7_2_mbox_conf -> conv7_2_mbox_conf
I0531 15:43:29.872575 11959 net.cpp:150] Setting up conv7_2_mbox_conf
I0531 15:43:29.872591 11959 net.cpp:157] Top shape: 16 126 5 5 (50400)
I0531 15:43:29.872594 11959 net.cpp:165] Memory required for data: 3995346080
I0531 15:43:29.872599 11959 layer_factory.hpp:77] Creating layer conv7_2_mbox_conf_perm
I0531 15:43:29.872606 11959 net.cpp:100] Creating Layer conv7_2_mbox_conf_perm
I0531 15:43:29.872611 11959 net.cpp:434] conv7_2_mbox_conf_perm <- conv7_2_mbox_conf
I0531 15:43:29.872615 11959 net.cpp:408] conv7_2_mbox_conf_perm -> conv7_2_mbox_conf_perm
I0531 15:43:29.872707 11959 net.cpp:150] Setting up conv7_2_mbox_conf_perm
I0531 15:43:29.872711 11959 net.cpp:157] Top shape: 16 5 5 126 (50400)
I0531 15:43:29.872714 11959 net.cpp:165] Memory required for data: 3995547680
I0531 15:43:29.872716 11959 layer_factory.hpp:77] Creating layer conv7_2_mbox_conf_flat
I0531 15:43:29.872721 11959 net.cpp:100] Creating Layer conv7_2_mbox_conf_flat
I0531 15:43:29.872725 11959 net.cpp:434] conv7_2_mbox_conf_flat <- conv7_2_mbox_conf_perm
I0531 15:43:29.872728 11959 net.cpp:408] conv7_2_mbox_conf_flat -> conv7_2_mbox_conf_flat
I0531 15:43:29.872746 11959 net.cpp:150] Setting up conv7_2_mbox_conf_flat
I0531 15:43:29.872750 11959 net.cpp:157] Top shape: 16 3150 (50400)
I0531 15:43:29.872752 11959 net.cpp:165] Memory required for data: 3995749280
I0531 15:43:29.872754 11959 layer_factory.hpp:77] Creating layer conv7_2_mbox_priorbox
I0531 15:43:29.872759 11959 net.cpp:100] Creating Layer conv7_2_mbox_priorbox
I0531 15:43:29.872771 11959 net.cpp:434] conv7_2_mbox_priorbox <- conv7_2_conv7_2_relu_0_split_3
I0531 15:43:29.872776 11959 net.cpp:434] conv7_2_mbox_priorbox <- data_data_0_split_4
I0531 15:43:29.872781 11959 net.cpp:408] conv7_2_mbox_priorbox -> conv7_2_mbox_priorbox
I0531 15:43:29.872802 11959 net.cpp:150] Setting up conv7_2_mbox_priorbox
I0531 15:43:29.872807 11959 net.cpp:157] Top shape: 1 2 600 (1200)
I0531 15:43:29.872808 11959 net.cpp:165] Memory required for data: 3995754080
I0531 15:43:29.872810 11959 layer_factory.hpp:77] Creating layer conv8_2_mbox_loc
I0531 15:43:29.872817 11959 net.cpp:100] Creating Layer conv8_2_mbox_loc
I0531 15:43:29.872820 11959 net.cpp:434] conv8_2_mbox_loc <- conv8_2_conv8_2_relu_0_split_1
I0531 15:43:29.872826 11959 net.cpp:408] conv8_2_mbox_loc -> conv8_2_mbox_loc
I0531 15:43:29.874471 11959 net.cpp:150] Setting up conv8_2_mbox_loc
I0531 15:43:29.874481 11959 net.cpp:157] Top shape: 16 16 3 3 (2304)
I0531 15:43:29.874485 11959 net.cpp:165] Memory required for data: 3995763296
I0531 15:43:29.874495 11959 layer_factory.hpp:77] Creating layer conv8_2_mbox_loc_perm
I0531 15:43:29.874501 11959 net.cpp:100] Creating Layer conv8_2_mbox_loc_perm
I0531 15:43:29.874505 11959 net.cpp:434] conv8_2_mbox_loc_perm <- conv8_2_mbox_loc
I0531 15:43:29.874510 11959 net.cpp:408] conv8_2_mbox_loc_perm -> conv8_2_mbox_loc_perm
I0531 15:43:29.874593 11959 net.cpp:150] Setting up conv8_2_mbox_loc_perm
I0531 15:43:29.874598 11959 net.cpp:157] Top shape: 16 3 3 16 (2304)
I0531 15:43:29.874599 11959 net.cpp:165] Memory required for data: 3995772512
I0531 15:43:29.874603 11959 layer_factory.hpp:77] Creating layer conv8_2_mbox_loc_flat
I0531 15:43:29.874606 11959 net.cpp:100] Creating Layer conv8_2_mbox_loc_flat
I0531 15:43:29.874609 11959 net.cpp:434] conv8_2_mbox_loc_flat <- conv8_2_mbox_loc_perm
I0531 15:43:29.874613 11959 net.cpp:408] conv8_2_mbox_loc_flat -> conv8_2_mbox_loc_flat
I0531 15:43:29.874631 11959 net.cpp:150] Setting up conv8_2_mbox_loc_flat
I0531 15:43:29.874635 11959 net.cpp:157] Top shape: 16 144 (2304)
I0531 15:43:29.874636 11959 net.cpp:165] Memory required for data: 3995781728
I0531 15:43:29.874639 11959 layer_factory.hpp:77] Creating layer conv8_2_mbox_conf
I0531 15:43:29.874645 11959 net.cpp:100] Creating Layer conv8_2_mbox_conf
I0531 15:43:29.874649 11959 net.cpp:434] conv8_2_mbox_conf <- conv8_2_conv8_2_relu_0_split_2
I0531 15:43:29.874653 11959 net.cpp:408] conv8_2_mbox_conf -> conv8_2_mbox_conf
I0531 15:43:29.877727 11959 net.cpp:150] Setting up conv8_2_mbox_conf
I0531 15:43:29.877746 11959 net.cpp:157] Top shape: 16 84 3 3 (12096)
I0531 15:43:29.877749 11959 net.cpp:165] Memory required for data: 3995830112
I0531 15:43:29.877756 11959 layer_factory.hpp:77] Creating layer conv8_2_mbox_conf_perm
I0531 15:43:29.877766 11959 net.cpp:100] Creating Layer conv8_2_mbox_conf_perm
I0531 15:43:29.877771 11959 net.cpp:434] conv8_2_mbox_conf_perm <- conv8_2_mbox_conf
I0531 15:43:29.877776 11959 net.cpp:408] conv8_2_mbox_conf_perm -> conv8_2_mbox_conf_perm
I0531 15:43:29.877929 11959 net.cpp:150] Setting up conv8_2_mbox_conf_perm
I0531 15:43:29.877936 11959 net.cpp:157] Top shape: 16 3 3 84 (12096)
I0531 15:43:29.877938 11959 net.cpp:165] Memory required for data: 3995878496
I0531 15:43:29.877941 11959 layer_factory.hpp:77] Creating layer conv8_2_mbox_conf_flat
I0531 15:43:29.877946 11959 net.cpp:100] Creating Layer conv8_2_mbox_conf_flat
I0531 15:43:29.877949 11959 net.cpp:434] conv8_2_mbox_conf_flat <- conv8_2_mbox_conf_perm
I0531 15:43:29.877954 11959 net.cpp:408] conv8_2_mbox_conf_flat -> conv8_2_mbox_conf_flat
I0531 15:43:29.877990 11959 net.cpp:150] Setting up conv8_2_mbox_conf_flat
I0531 15:43:29.877995 11959 net.cpp:157] Top shape: 16 756 (12096)
I0531 15:43:29.877996 11959 net.cpp:165] Memory required for data: 3995926880
I0531 15:43:29.877998 11959 layer_factory.hpp:77] Creating layer conv8_2_mbox_priorbox
I0531 15:43:29.878018 11959 net.cpp:100] Creating Layer conv8_2_mbox_priorbox
I0531 15:43:29.878022 11959 net.cpp:434] conv8_2_mbox_priorbox <- conv8_2_conv8_2_relu_0_split_3
I0531 15:43:29.878053 11959 net.cpp:434] conv8_2_mbox_priorbox <- data_data_0_split_5
I0531 15:43:29.878072 11959 net.cpp:408] conv8_2_mbox_priorbox -> conv8_2_mbox_priorbox
I0531 15:43:29.878100 11959 net.cpp:150] Setting up conv8_2_mbox_priorbox
I0531 15:43:29.878104 11959 net.cpp:157] Top shape: 1 2 144 (288)
I0531 15:43:29.878106 11959 net.cpp:165] Memory required for data: 3995928032
I0531 15:43:29.878110 11959 layer_factory.hpp:77] Creating layer conv9_2_mbox_loc
I0531 15:43:29.878123 11959 net.cpp:100] Creating Layer conv9_2_mbox_loc
I0531 15:43:29.878127 11959 net.cpp:434] conv9_2_mbox_loc <- conv9_2_conv9_2_relu_0_split_0
I0531 15:43:29.878131 11959 net.cpp:408] conv9_2_mbox_loc -> conv9_2_mbox_loc
I0531 15:43:29.880033 11959 net.cpp:150] Setting up conv9_2_mbox_loc
I0531 15:43:29.880048 11959 net.cpp:157] Top shape: 16 16 1 1 (256)
I0531 15:43:29.880050 11959 net.cpp:165] Memory required for data: 3995929056
I0531 15:43:29.880055 11959 layer_factory.hpp:77] Creating layer conv9_2_mbox_loc_perm
I0531 15:43:29.880061 11959 net.cpp:100] Creating Layer conv9_2_mbox_loc_perm
I0531 15:43:29.880064 11959 net.cpp:434] conv9_2_mbox_loc_perm <- conv9_2_mbox_loc
I0531 15:43:29.880069 11959 net.cpp:408] conv9_2_mbox_loc_perm -> conv9_2_mbox_loc_perm
I0531 15:43:29.880162 11959 net.cpp:150] Setting up conv9_2_mbox_loc_perm
I0531 15:43:29.880167 11959 net.cpp:157] Top shape: 16 1 1 16 (256)
I0531 15:43:29.880169 11959 net.cpp:165] Memory required for data: 3995930080
I0531 15:43:29.880172 11959 layer_factory.hpp:77] Creating layer conv9_2_mbox_loc_flat
I0531 15:43:29.880177 11959 net.cpp:100] Creating Layer conv9_2_mbox_loc_flat
I0531 15:43:29.880179 11959 net.cpp:434] conv9_2_mbox_loc_flat <- conv9_2_mbox_loc_perm
I0531 15:43:29.880183 11959 net.cpp:408] conv9_2_mbox_loc_flat -> conv9_2_mbox_loc_flat
I0531 15:43:29.880203 11959 net.cpp:150] Setting up conv9_2_mbox_loc_flat
I0531 15:43:29.880208 11959 net.cpp:157] Top shape: 16 16 (256)
I0531 15:43:29.880209 11959 net.cpp:165] Memory required for data: 3995931104
I0531 15:43:29.880213 11959 layer_factory.hpp:77] Creating layer conv9_2_mbox_conf
I0531 15:43:29.880223 11959 net.cpp:100] Creating Layer conv9_2_mbox_conf
I0531 15:43:29.880226 11959 net.cpp:434] conv9_2_mbox_conf <- conv9_2_conv9_2_relu_0_split_1
I0531 15:43:29.880231 11959 net.cpp:408] conv9_2_mbox_conf -> conv9_2_mbox_conf
I0531 15:43:29.883025 11959 net.cpp:150] Setting up conv9_2_mbox_conf
I0531 15:43:29.883035 11959 net.cpp:157] Top shape: 16 84 1 1 (1344)
I0531 15:43:29.883038 11959 net.cpp:165] Memory required for data: 3995936480
I0531 15:43:29.883042 11959 layer_factory.hpp:77] Creating layer conv9_2_mbox_conf_perm
I0531 15:43:29.883047 11959 net.cpp:100] Creating Layer conv9_2_mbox_conf_perm
I0531 15:43:29.883049 11959 net.cpp:434] conv9_2_mbox_conf_perm <- conv9_2_mbox_conf
I0531 15:43:29.883054 11959 net.cpp:408] conv9_2_mbox_conf_perm -> conv9_2_mbox_conf_perm
I0531 15:43:29.883170 11959 net.cpp:150] Setting up conv9_2_mbox_conf_perm
I0531 15:43:29.883175 11959 net.cpp:157] Top shape: 16 1 1 84 (1344)
I0531 15:43:29.883177 11959 net.cpp:165] Memory required for data: 3995941856
I0531 15:43:29.883178 11959 layer_factory.hpp:77] Creating layer conv9_2_mbox_conf_flat
I0531 15:43:29.883183 11959 net.cpp:100] Creating Layer conv9_2_mbox_conf_flat
I0531 15:43:29.883185 11959 net.cpp:434] conv9_2_mbox_conf_flat <- conv9_2_mbox_conf_perm
I0531 15:43:29.883189 11959 net.cpp:408] conv9_2_mbox_conf_flat -> conv9_2_mbox_conf_flat
I0531 15:43:29.883208 11959 net.cpp:150] Setting up conv9_2_mbox_conf_flat
I0531 15:43:29.883224 11959 net.cpp:157] Top shape: 16 84 (1344)
I0531 15:43:29.883227 11959 net.cpp:165] Memory required for data: 3995947232
I0531 15:43:29.883229 11959 layer_factory.hpp:77] Creating layer conv9_2_mbox_priorbox
I0531 15:43:29.883236 11959 net.cpp:100] Creating Layer conv9_2_mbox_priorbox
I0531 15:43:29.883240 11959 net.cpp:434] conv9_2_mbox_priorbox <- conv9_2_conv9_2_relu_0_split_2
I0531 15:43:29.883244 11959 net.cpp:434] conv9_2_mbox_priorbox <- data_data_0_split_6
I0531 15:43:29.883288 11959 net.cpp:408] conv9_2_mbox_priorbox -> conv9_2_mbox_priorbox
I0531 15:43:29.883352 11959 net.cpp:150] Setting up conv9_2_mbox_priorbox
I0531 15:43:29.883355 11959 net.cpp:157] Top shape: 1 2 16 (32)
I0531 15:43:29.883360 11959 net.cpp:165] Memory required for data: 3995947360
I0531 15:43:29.883363 11959 layer_factory.hpp:77] Creating layer mbox_loc
I0531 15:43:29.883368 11959 net.cpp:100] Creating Layer mbox_loc
I0531 15:43:29.883373 11959 net.cpp:434] mbox_loc <- conv4_3_norm_mbox_loc_flat
I0531 15:43:29.883376 11959 net.cpp:434] mbox_loc <- fc7_mbox_loc_flat
I0531 15:43:29.883380 11959 net.cpp:434] mbox_loc <- conv6_2_mbox_loc_flat
I0531 15:43:29.883385 11959 net.cpp:434] mbox_loc <- conv7_2_mbox_loc_flat
I0531 15:43:29.883389 11959 net.cpp:434] mbox_loc <- conv8_2_mbox_loc_flat
I0531 15:43:29.883393 11959 net.cpp:434] mbox_loc <- conv9_2_mbox_loc_flat
I0531 15:43:29.883399 11959 net.cpp:408] mbox_loc -> mbox_loc
I0531 15:43:29.883424 11959 net.cpp:150] Setting up mbox_loc
I0531 15:43:29.883427 11959 net.cpp:157] Top shape: 16 34928 (558848)
I0531 15:43:29.883430 11959 net.cpp:165] Memory required for data: 3998182752
I0531 15:43:29.883431 11959 layer_factory.hpp:77] Creating layer mbox_conf
I0531 15:43:29.883436 11959 net.cpp:100] Creating Layer mbox_conf
I0531 15:43:29.883438 11959 net.cpp:434] mbox_conf <- conv4_3_norm_mbox_conf_flat
I0531 15:43:29.883442 11959 net.cpp:434] mbox_conf <- fc7_mbox_conf_flat
I0531 15:43:29.883445 11959 net.cpp:434] mbox_conf <- conv6_2_mbox_conf_flat
I0531 15:43:29.883447 11959 net.cpp:434] mbox_conf <- conv7_2_mbox_conf_flat
I0531 15:43:29.883450 11959 net.cpp:434] mbox_conf <- conv8_2_mbox_conf_flat
I0531 15:43:29.883453 11959 net.cpp:434] mbox_conf <- conv9_2_mbox_conf_flat
I0531 15:43:29.883473 11959 net.cpp:408] mbox_conf -> mbox_conf
I0531 15:43:29.883507 11959 net.cpp:150] Setting up mbox_conf
I0531 15:43:29.883512 11959 net.cpp:157] Top shape: 16 183372 (2933952)
I0531 15:43:29.883513 11959 net.cpp:165] Memory required for data: 4009918560
I0531 15:43:29.883515 11959 layer_factory.hpp:77] Creating layer mbox_priorbox
I0531 15:43:29.883534 11959 net.cpp:100] Creating Layer mbox_priorbox
I0531 15:43:29.883538 11959 net.cpp:434] mbox_priorbox <- conv4_3_norm_mbox_priorbox
I0531 15:43:29.883540 11959 net.cpp:434] mbox_priorbox <- fc7_mbox_priorbox
I0531 15:43:29.883544 11959 net.cpp:434] mbox_priorbox <- conv6_2_mbox_priorbox
I0531 15:43:29.883548 11959 net.cpp:434] mbox_priorbox <- conv7_2_mbox_priorbox
I0531 15:43:29.883564 11959 net.cpp:434] mbox_priorbox <- conv8_2_mbox_priorbox
I0531 15:43:29.883569 11959 net.cpp:434] mbox_priorbox <- conv9_2_mbox_priorbox
I0531 15:43:29.883574 11959 net.cpp:408] mbox_priorbox -> mbox_priorbox
I0531 15:43:29.883595 11959 net.cpp:150] Setting up mbox_priorbox
I0531 15:43:29.883599 11959 net.cpp:157] Top shape: 1 2 34928 (69856)
I0531 15:43:29.883604 11959 net.cpp:165] Memory required for data: 4010197984
I0531 15:43:29.883606 11959 layer_factory.hpp:77] Creating layer mbox_loss
I0531 15:43:29.883616 11959 net.cpp:100] Creating Layer mbox_loss
I0531 15:43:29.883620 11959 net.cpp:434] mbox_loss <- mbox_loc
I0531 15:43:29.883623 11959 net.cpp:434] mbox_loss <- mbox_conf
I0531 15:43:29.883641 11959 net.cpp:434] mbox_loss <- mbox_priorbox
…
state {
  phase: TEST
}
layer {
  name: "data"
  type: "AnnotatedData"
  top: "data"
  top: "label"
  include {
    phase: TEST
  }
  transform_param {
    mean_value: 104
    mean_value: 117
    mean_value: 123
    resize_param {
      prob: 1
      resize_mode: WARP
      height: 300
      width: 300
      interp_mode: LINEAR
    }
  }
  data_param {
    source: "examples/VOC0712/VOC0712_test_lmdb"
    batch_size: 8
    backend: LMDB
  }
  annotated_data_param {
    batch_sampler {
    }
    label_map_file: "data/VOC0712/labelmap_voc.prototxt"
  }
}
layer {
  name: "conv1_1"
  type: "Convolution"
  bottom: "data"
  top: "conv1_1"
  param {
    lr_mult: 1
    decay_mult: 1
  }
  param {
    lr_mult: 2
    decay_mult: 0
  }
  convolution_param {
    num_output: 64
    pad: 1
    kernel_size: 3
    weight_filler {
      type: "xavier"
    }
    bias_filler {
      type: "constant"
      value: 0
    }
  }
}
layer {
  name: "relu1_1"
  type: "ReLU"
  bottom: "conv1_1"
  top: "conv1_1"
}
layer {
  name: "conv1_2"
  type: "Convolution"
  bottom: "conv1_1"
  top: "conv1_2"
  param {
    lr_mult: 1
    decay_mult: 1
  }
  param {
    lr_mult: 2
    decay_mult: 0
  }
  convolution_param {
    num_output: 64
    pad: 1
    kernel_size: 3
    weight_filler {
      type: "xavier"
    }
    bias_filler {
      type: "constant"
      value: 0
    }
  }
}
layer {
  name: "relu1_2"
  type: "ReLU"
  bottom: "conv1_2"
  top: "conv1_2"
}
layer {
  name: "pool1"
  type: "Pooling"
  bottom: "conv1_2"
  top: "pool1"
  pooling_param {
    pool: MAX
    kernel_size: 2
    stride: 2
  }
}
layer {
  name: "conv2_1"
  type: "Convolution"
  bottom: "pool1"
  top: "conv2_1"
  param {
    lr_mult: 1
    decay_mult: 1
  }
  param {
    lr_mult: 2
    decay_mult: 0
  }
  convolution_param {
    num_output: 128
    pad: 1
    kernel_size: 3
    weight_filler {
      type: "xavier"
    }
    bias_filler {
      type: "constant"
      value: 0
    }
  }
}
layer {
  name: "relu2_1"
  type: "ReLU"
  bottom: "conv2_1"
  top: "conv2_1"
}
layer {
  name: "conv2_2"
  type: "Convolution"
  bottom: "conv2_1"
  top: "conv2_2"
  param {
    lr_mult: 1
    decay_mult: 1
  }
  param {
    lr_mult: 2
    decay_mult: 0
  }
  convolution_param {
    num_output: 128
    pad: 1
    kernel_size: 3
    weight_filler {
      type: "xavier"
    }
    bias_filler {
      type: "constant"
      value: 0
    }
  }
}
layer {
  name: "relu2_2"
  type: "ReLU"
  bottom: "conv2_2"
  top: "conv2_2"
}
layer {
  name: "pool2"
  type: "Pooling"
  bottom: "conv2_2"
  top: "pool2"
  pooling_param {
    pool: MAX
    kernel_size: 2
    stride: 2
  }
}
layer {
  name: "conv3_1"
  type: "Convolution"
  bottom: "pool2"
  top: "conv3_1"
  param {
    lr_mult: 1
    decay_mult: 1
  }
  param {
    lr_mult: 2
    decay_mult: 0
  }
  convolution_param {
    num_output: 256
    pad: 1
    kernel_size: 3
    weight_filler {
      type: "xavier"
    }
    bias_filler {
      type: "constant"
      value: 0
    }
  }
}
layer {
  name: "relu3_1"
  type: "ReLU"
  bottom: "conv3_1"
  top: "conv3_1"
}
layer {
  name: "conv3_2"
  type: "Convolution"
  bottom: "conv3_1"
  top: "conv3_2"
  param {
    lr_mult: 1
    decay_mult: 1
  }
  param {
    lr_mult: 2
    decay_mult: 0
  }
  convolution_param {
    num_output: 256
    pad: 1
    kernel_size: 3
    weight_filler {
      type: "xavier"
    }
    bias_filler {
      type: "constant"
      value: 0
    }
  }
}
layer {
  name: "relu3_2"
  type: "ReLU"
  bottom: "conv3_2"
  top: "conv3_2"
}
layer {
  name: "conv3_3"
  type: "Convolution"
  bottom: "conv3_2"
  top: "conv3_3"
  param {
    lr_mult: 1
    decay_mult: 1
  }
  param {
    lr_mult: 2
    decay_mult: 0
  }
  convolution_param {
    num_output: 256
    pad: 1
    kernel_size: 3
    weight_filler {
      type: "xavier"
    }
    bias_filler {
      type: "constant"
      value: 0
    }
  }
}
layer {
  name: "relu3_3"
  type: "ReLU"
  bottom: "conv3_3"
  top: "conv3_3"
}
layer {
  name: "pool3"
  type: "Pooling"
  bottom: "conv3_3"
  top: "pool3"
  pooling_param {
    pool: MAX
    kernel_size: 2
    stride: 2
  }
}
layer {
  name: "conv4_1"
  type: "Convolution"
  bottom: "pool3"
  top: "conv4_1"
  param {
    lr_mult: 1
    decay_mult: 1
  }
  param {
    lr_mult: 2
    decay_mult: 0
  }
  convolution_param {
    num_output: 512
    pad: 1
    kernel_size: 3
    weight_filler {
      type: "xavier"
    }
    bias_filler {
      type: "constant"
      value: 0
    }
  }
}
layer {
  name: "relu4_1"
  type: "ReLU"
  bottom: "conv4_1"
  top: "conv4_1"
}
layer {
  name: "conv4_2"
  type: "Convolution"
  bottom: "conv4_1"
  top: "conv4_2"
  param {
    lr_mult: 1
    decay_mult: 1
  }
  param {
    lr_mult: 2
    decay_mult: 0
  }
  convolution_param {
    num_output: 512
    pad: 1
    kernel_size: 3
    weight_filler {
      type: "xavier"
    }
    bias_filler {
      type: "constant"
      value: 0
    }
  }
}
layer {
  name: "relu4_2"
  type: "ReLU"
  bottom: "conv4_2"
  top: "conv4_2"
}
layer {
  name: "conv4_3"
  type: "Convolution"
  bottom: "conv4_2"
  top: "conv4_3"
  param {
    lr_mult: 1
    decay_mult: 1
  }
  param {
    lr_mult: 2
    decay_mult: 0
  }
  convolution_param {
    num_output: 512
    pad: 1
    kernel_size: 3
    weight_filler {
      type: "xavier"
    }
    bias_filler {
      type: "constant"
      value: 0
    }
  }
}
layer {
  name: "relu4_3"
  type: "ReLU"
  bottom: "conv4_3"
  top: "conv4_3"
}
layer {
  name: "pool4"
  type: "Pooling"
  bottom: "conv4_3"
  top: "pool4"
  pooling_param {
    pool: MAX
    kernel_size: 2
    stride: 2
  }
}
layer {
  name: "conv5_1"
  type: "Convolution"
  bottom: "pool4"
  top: "conv5_1"
  param {
    lr_mult: 1
    decay_mult: 1
  }
  param {
    lr_mult: 2
    decay_mult: 0
  }
  convolution_param {
    num_output: 512
    pad: 1
    kernel_size: 3
    weight_filler {
      type: "xavier"
    }
    bias_filler {
      type: "constant"
      value: 0
    }
    dilation: 1
  }
}
layer {
  name: "relu5_1"
  type: "ReLU"
  bottom: "conv5_1"
  top: "conv5_1"
}
layer {
  name: "conv5_2"
  type: "Convolution"
  bottom: "conv5_1"
  top: "conv5_2"
  param {
    lr_mult: 1
    decay_mult: 1
  }
  param {
    lr_mult: 2
    decay_mult: 0
  }
  convolution_param {
    num_output: 512
    pad: 1
    kernel_size: 3
    weight_filler {
      type: "xavier"
    }
    bias_filler {
      type: "constant"
      value: 0
    }
    dilation: 1
  }
}
layer {
  name: "relu5_2"
  type: "ReLU"
  bottom: "conv5_2"
  top: "conv5_2"
}
layer {
  name: "conv5_3"
  type: "Convolution"
  bottom: "conv5_2"
  top: "conv5_3"
  param {
    lr_mult: 1
    decay_mult: 1
  }
  param {
    lr_mult: 2
    decay_mult: 0
  }
  convolution_param {
    num_output: 512
    pad: 1
    kernel_size: 3
    weight_filler {
      type: "xavier"
    }
    bias_filler {
      type: "constant"
      value: 0
    }
    dilation: 1
  }
}
layer {
  name: "relu5_3"
  type: "ReLU"
  bottom: "conv5_3"
  top: "conv5_3"
}
layer {
  name: "pool5"
  type: "Pooling"
  bottom: "conv5_3"
  top: "pool5"
  pooling_param {
    pool: MAX
    kernel_size: 3
    stride: 1
    pad: 1
  }
}
layer {
  name: "fc6"
  type: "Convolution"
  bottom: "pool5"
  top: "fc6"
  param {
    lr_mult: 1
    decay_mult: 1
  }
  param {
    lr_mult: 2
    decay_mult: 0
  }
  convolution_param {
    num_output: 1024
    pad: 6
    kernel_size: 3
    weight_filler {
      type: "xavier"
    }
    bias_filler {
      type: "constant"
      value: 0
    }
    dilation: 6
  }
}
layer {
  name: "relu6"
  type: "ReLU"
  bottom: "fc6"
  top: "fc6"
}
layer {
  name: "fc7"
  type: "Convolution"
  bottom: "fc6"
  top: "fc7"
  param {
    lr_mult: 1
    decay_mult: 1
  }
  param {
    lr_mult: 2
    decay_mult: 0
  }
  convolution_param {
    num_output: 1024
    kernel_size: 1
    weight_filler {
      type: "xavier"
    }
    bias_filler {
      type: "constant"
      value: 0
    }
  }
}
layer {
  name: "relu7"
  type: "ReLU"
  bottom: "fc7"
  top: "fc7"
}
layer {
  name: "conv6_1"
  type: "Convolution"
  bottom: "fc7"
  top: "conv6_1"
  param {
    lr_mult: 1
    decay_mult: 1
  }
  param {
    lr_mult: 2
    decay_mult: 0
  }
  convolution_param {
    num_output: 256
    pad: 0
    kernel_size: 1
    stride: 1
    weight_filler {
      type: "xavier"
    }
    bias_filler {
      type: "constant"
      value: 0
    }
  }
}
layer {
  name: "conv6_1_relu"
  type: "ReLU"
  bottom: "conv6_1"
  top: "conv6_1"
}
layer {
  name: "conv6_2"
  type: "Convolution"
  bottom: "conv6_1"
  top: "conv6_2"
  param {
    lr_mult: 1
    decay_mult: 1
  }
  param {
    lr_mult: 2
    decay_mult: 0
  }
  convolution_param {
    num_output: 512
    pad: 1
    kernel_size: 3
    stride: 2
    weight_filler {
      type: "xavier"
    }
    bias_filler {
      type: "constant"
      value: 0
    }
  }
}
layer {
  name: "conv6_2_relu"
  type: "ReLU"
  bottom: "conv6_2"
  top: "conv6_2"
}
layer {
  name: "conv7_1"
  type: "Convolution"
  bottom: "conv6_2"
  top: "conv7_1"
  param {
    lr_mult: 1
    decay_mult: 1
  }
  param {
    lr_mult: 2
    decay_mult: 0
  }
  convolution_param {
    num_output: 128
    pad: 0
    kernel_size: 1
    stride: 1
    weight_filler {
      type: "xavier"
    }
    bias_filler {
      type: "constant"
      value: 0
    }
  }
}
layer {
  name: "conv7_1_relu"
  type: "ReLU"
  bottom: "conv7_1"
  top: "conv7_1"
}
layer {
  name: "conv7_2"
  type: "Convolution"
  bottom: "conv7_1"
  top: "conv7_2"
  param {
    lr_mult: 1
    decay_mult: 1
  }
  param {
    lr_mult: 2
    decay_mult: 0
  }
  convolution_param {
    num_output: 256
    pad: 1
    kernel_size: 3
    stride: 2
    weight_filler {
      type: "xavier"
    }
    bias_filler {
      type: "constant"
      value: 0
    }
  }
}
layer {
  name: "conv7_2_relu"
  type: "ReLU"
  bottom: "conv7_2"
  top: "conv7_2"
}
layer {
  name: "conv8_1"
  type: "Convolution"
  bottom: "conv7_2"
  top: "conv8_1"
  param {
    lr_mult: 1
    decay_mult: 1
  }
  param {
    lr_mult: 2
    decay_mult: 0
  }
  convolution_param {
    num_output: 128
    pad: 0
    kernel_size: 1
    stride: 1
    weight_filler {
      type: "xavier"
    }
    bias_filler {
      type: "constant"
      value: 0
    }
  }
}
layer {
  name: "conv8_1_relu"
  type: "ReLU"
  bottom: "conv8_1"
  top: "conv8_1"
}
layer {
  name: "conv8_2"
  type: "Convolution"
  bottom: "conv8_1"
  top: "conv8_2"
  param {
    lr_mult: 1
    decay_mult: 1
  }
  param {
    lr_mult: 2
    decay_mult: 0
  }
  convolution_param {
    num_output: 256
    pad: 0
    kernel_size: 3
    stride: 1
    weight_filler {
      type: "xavier"
    }
    bias_filler {
      type: "constant"
      value: 0
    }
  }
}
layer {
  name: "conv8_2_relu"
  type: "ReLU"
  bottom: "conv8_2"
  top: "conv8_2"
}
layer {
  name: "conv9_1"
  type: "Convolution"
  bottom: "conv8_2"
  top: "conv9_1"
  param {
    lr_mult: 1
    decay_mult: 1
  }
  param {
    lr_mult: 2
    decay_mult: 0
  }
  convolution_param {
    num_output: 128
    pad: 0
    kernel_size: 1
    stride: 1
    weight_filler {
      type: "xavier"
    }
    bias_filler {
      type: "constant"
      value: 0
    }
  }
}
layer {
  name: "conv9_1_relu"
  type: "ReLU"
  bottom: "conv9_1"
  top: "conv9_1"
}
layer {
  name: "conv9_2"
  type: "Convolution"
  bottom: "conv9_1"
  top: "conv9_2"
  param {
    lr_mult: 1
    decay_mult: 1
  }
  param {
    lr_mult: 2
    decay_mult: 0
  }
  convolution_param {
    num_output: 256
    pad: 0
    kernel_size: 3
    stride: 1
    weight_filler {
      type: "xavier"
    }
    bias_filler {
      type: "constant"
      value: 0
    }
  }
}
layer {
  name: "conv9_2_relu"
  type: "ReLU"
  bottom: "conv9_2"
  top: "conv9_2"
}
layer {
  name: "conv4_3_norm"
  type: "Normalize"
  bottom: "conv4_3"
  top: "conv4_3_norm"
  norm_param {
    across_spatial: false
    scale_filler {
      type: "constant"
      value: 20
    }
    channel_shared: false
  }
}
layer {
  name: "conv4_3_norm_mbox_loc"
  type: "Convolution"
  bottom: "conv4_3_norm"
  top: "conv4_3_norm_mbox_loc"
  param {
    lr_mult: 1
    decay_mult: 1
  }
  param {
    lr_mult: 2
    decay_mult: 0
  }
  convolution_param {
    num_output: 16
    pad: 1
    kernel_size: 3
    stride: 1
    weight_filler {
      type: "xavier"
    }
    bias_filler {
      type: "constant"
      value: 0
    }
  }
}
layer {
  name: "conv4_3_norm_mbox_loc_perm"
  type: "Permute"
  bottom: "conv4_3_norm_mbox_loc"
  top: "conv4_3_norm_mbox_loc_perm"
  permute_param {
    order: 0
    order: 2
    order: 3
    order: 1
  }
}
layer {
  name: "conv4_3_norm_mbox_loc_flat"
  type: "Flatten"
  bottom: "conv4_3_norm_mbox_loc_perm"
  top: "conv4_3_norm_mbox_loc_flat"
  flatten_param {
    axis: 1
  }
}
layer {
  name: "conv4_3_norm_mbox_conf"
  type: "Convolution"
  bottom: "conv4_3_norm"
  top: "conv4_3_norm_mbox_conf"
  param {
    lr_mult: 1
    decay_mult: 1
  }
  param {
    lr_mult: 2
    decay_mult: 0
  }
  convolution_param {
    num_output: 84
    pad: 1
    kernel_size: 3
    stride: 1
    weight_filler {
      type: "xavier"
    }
    bias_filler {
      type: "constant"
      value: 0
    }
  }
}
layer {
  name: "conv4_3_norm_mbox_conf_perm"
  type: "Permute"
  bottom: "conv4_3_norm_mbox_conf"
  top: "conv4_3_norm_mbox_conf_perm"
  permute_param {
    order: 0
    order: 2
    order: 3
    order: 1
  }
}
layer {
  name: "conv4_3_norm_mbox_conf_flat"
  type: "Flatten"
  bottom: "conv4_3_norm_mbox_conf_perm"
  top: "conv4_3_norm_mbox_conf_flat"
  flatten_param {
    axis: 1
  }
}
layer {
  name: "conv4_3_norm_mbox_priorbox"
  type: "PriorBox"
  bottom: "conv4_3_norm"
  bottom: "data"
  top: "conv4_3_norm_mbox_priorbox"
  prior_box_param {
    min_size: 30
    max_size: 60
    aspect_ratio: 2
    flip: true
    clip: false
    variance: 0.1
    variance: 0.1
    variance: 0.2
    variance: 0.2
    step: 8
    offset: 0.5
  }
}
layer {
  name: "fc7_mbox_loc"
  type: "Convolution"
  bottom: "fc7"
  top: "fc7_mbox_loc"
  param {
    lr_mult: 1
    decay_mult: 1
  }
  param {
    lr_mult: 2
    decay_mult: 0
  }
  convolution_param {
    num_output: 24
    pad: 1
    kernel_size: 3
    stride: 1
    weight_filler {
      type: "xavier"
    }
    bias_filler {
      type: "constant"
      value: 0
    }
  }
}
layer {
  name: "fc7_mbox_loc_perm"
  type: "Permute"
  bottom: "fc7_mbox_loc"
  top: "fc7_mbox_loc_perm"
  permute_param {
    order: 0
    order: 2
    order: 3
    order: 1
  }
}
layer {
  name: "fc7_mbox_loc_flat"
  type: "Flatten"
  bottom: "fc7_mbox_loc_perm"
  top: "fc7_mbox_loc_flat"
  flatten_param {
    axis: 1
  }
}
layer {
  name: "fc7_mbox_conf"
  type: "Convolution"
  bottom: "fc7"
  top: "fc7_mbox_conf"
  param {
    lr_mult: 1
    decay_mult: 1
  }
  param {
    lr_mult: 2
    decay_mult: 0
  }
  convolution_param {
    num_output: 126
    pad: 1
    kernel_size: 3
    stride: 1
    weight_filler {
      type: "xavier"
    }
    bias_filler {
      type: "constant"
      value: 0
    }
  }
}
layer {
  name: "fc7_mbox_conf_perm"
  type: "Permute"
  bottom: "fc7_mbox_conf"
  top: "fc7_mbox_conf_perm"
  permute_param {
    order: 0
    order: 2
    order: 3
    order: 1
  }
}
layer {
  name: "fc7_mbox_conf_flat"
  type: "Flatten"
  bottom: "fc7_mbox_conf_perm"
  top: "fc7_mbox_conf_flat"
  flatten_param {
    axis: 1
  }
}
layer {
  name: "fc7_mbox_priorbox"
  type: "PriorBox"
  bottom: "fc7"
  bottom: "data"
  top: "fc7_mbox_priorbox"
  prior_box_param {
    min_size: 60
    max_size: 111
    aspect_ratio: 2
    aspect_ratio: 3
    flip: true
    clip: false
    variance: 0.1
    variance: 0.1
    variance: 0.2
    variance: 0.2
    step: 16
    offset: 0.5
  }
}
layer {
  name: "conv6_2_mbox_loc"
  type: "Convolution"
  bottom: "conv6_2"
  top: "conv6_2_mbox_loc"
  param {
    lr_mult: 1
    decay_mult: 1
  }
  param {
    lr_mult: 2
    decay_mult: 0
  }
  convolution_param {
    num_output: 24
    pad: 1
    kernel_size: 3
    stride: 1
    weight_filler {
      type: "xavier"
    }
    bias_filler {
      type: "constant"
      value: 0
    }
  }
}
layer {
  name: "conv6_2_mbox_loc_perm"
  type: "Permute"
  bottom: "conv6_2_mbox_loc"
  top: "conv6_2_mbox_loc_perm"
  permute_param {
    order: 0
    order: 2
    order: 3
    order: 1
  }
}
layer {
  name: "conv6_2_mbox_loc_flat"
  type: "Flatten"
  bottom: "conv6_2_mbox_loc_perm"
  top: "conv6_2_mbox_loc_flat"
  flatten_param {
    axis: 1
  }
}
layer {
  name: "conv6_2_mbox_conf"
  type: "Convolution"
  bottom: "conv6_2"
  top: "conv6_2_mbox_conf"
  param {
    lr_mult: 1
    decay_mult: 1
  }
  param {
    lr_mult: 2
    decay_mult: 0
  }
  convolution_param {
    num_output: 126
    pad: 1
    kernel_size: 3
    stride: 1
    weight_filler {
      type: "xavier"
    }
    bias_filler {
      type: "constant"
      value: 0
    }
  }
}
layer {
  name: "conv6_2_mbox_conf_perm"
  type: "Permute"
  bottom: "conv6_2_mbox_conf"
  top: "conv6_2_mbox_conf_perm"
  permute_param {
    order: 0
    order: 2
    order: 3
    order: 1
  }
}
layer {
  name: "conv6_2_mbox_conf_flat"
  type: "Flatten"
  bottom: "conv6_2_mbox_conf_perm"
  top: "conv6_2_mbox_conf_flat"
  flatten_param {
    axis: 1
  }
}
layer {
  name: "conv6_2_mbox_priorbox"
  type: "PriorBox"
  bottom: "conv6_2"
  bottom: "data"
  top: "conv6_2_mbox_priorbox"
  prior_box_param {
    min_size: 111
    max_size: 162
    aspect_ratio: 2
    aspect_ratio: 3
    flip: true
    clip: false
    variance: 0.1
    variance: 0.1
    variance: 0.2
    variance: 0.2
    step: 32
    offset: 0.5
  }
}
layer {
  name: "conv7_2_mbox_loc"
  type: "Convolution"
  bottom: "conv7_2"
  top: "conv7_2_mbox_loc"
  param {
    lr_mult: 1
    decay_mult: 1
  }
  param {
    lr_mult: 2
    decay_mult: 0
  }
  convolution_param {
    num_output: 24
    pad: 1
    kernel_size: 3
    stride: 1
    weight_filler {
      type: "xavier"
    }
    bias_filler {
      type: "constant"
      value: 0
    }
  }
}
layer {
  name: "conv7_2_mbox_loc_perm"
  type: "Permute"
  bottom: "conv7_2_mbox_loc"
  top: "conv7_2_mbox_loc_perm"
  permute_param {
    order: 0
    order: 2
    order: 3
    order: 1
  }
}
layer {
  name: "conv7_2_mbox_loc_flat"
  type: "Flatten"
  bottom: "conv7_2_mbox_loc_perm"
  top: "conv7_2_mbox_loc_flat"
  flatten_param {
    axis: 1
  }
}
layer {
  name: "conv7_2_mbox_conf"
  type: "Convolution"
  bottom: "conv7_2"
  top: "conv7_2_mbox_conf"
  param {
    lr_mult: 1
    decay_mult: 1
  }
  param {
    lr_mult: 2
    decay_mult: 0
  }
  convolution_param {
    num_output: 126
    pad: 1
    kernel_size: 3
    stride: 1
    weight_filler {
      type: "xavier"
    }
    bias_filler {
      type: "constant"
      value: 0
    }
  }
}
layer {
  name: "conv7_2_mbox_conf_perm"
  type: "Permute"
  bottom: "conv7_2_mbox_conf"
  top: "conv7_2_mbox_conf_perm"
  permute_param {
    order: 0
    order: 2
    order: 3
    order: 1
  }
}
layer {
  name: "conv7_2_mbox_conf_flat"
  type: "Flatten"
  bottom: "conv7_2_mbox_conf_perm"
  top: "conv7_2_mbox_conf_flat"
  flatten_param {
    axis: 1
  }
}
layer {
  name: "conv7_2_mbox_priorbox"
  type: "PriorBox"
  bottom: "conv7_2"
  bottom: "data"
  top: "conv7_2_mbox_priorbox"
  prior_box_param {
    min_size: 162
    max_size: 213
    aspect_ratio: 2
    aspect_ratio: 3
    flip: true
    clip: false
    variance: 0.1
    variance: 0.1
    variance: 0.2
    variance: 0.2
    step: 64
    offset: 0.5
  }
}
layer {
  name: "conv8_2_mbox_loc"
  type: "Convolution"
  bottom: "conv8_2"
  top: "conv8_2_mbox_loc"
  param {
    lr_mult: 1
    decay_mult: 1
  }
  param {
    lr_mult: 2
    decay_mult: 0
  }
  convolution_param {
    num_output: 16
    pad: 1
    kernel_size: 3
    stride: 1
    weight_filler {
      type: "xavier"
    }
    bias_filler {
      type: "constant"
      value: 0
    }
  }
}
layer {
  name: "conv8_2_mbox_loc_perm"
  type: "Permute"
  bottom: "conv8_2_mbox_loc"
  top: "conv8_2_mbox_loc_perm"
  permute_param {
    order: 0
    order: 2
    order: 3
    order: 1
  }
}
layer {
  name: "conv8_2_mbox_loc_flat"
  type: "Flatten"
  bottom: "conv8_2_mbox_loc_perm"
  top: "conv8_2_mbox_loc_flat"
  flatten_param {
    axis: 1
  }
}
layer {
  name: "conv8_2_mbox_conf"
  type: "Convolution"
  bottom: "conv8_2"
  top: "conv8_2_mbox_conf"
  param {
    lr_mult: 1
    decay_mult: 1
  }
  param {
    lr_mult: 2
    decay_mult: 0
  }
  convolution_param {
    num_output: 84
    pad: 1
    kernel_size: 3
    stride: 1
    weight_filler {
      type: "xavier"
    }
    bias_filler {
      type: "constant"
      value: 0
    }
  }
}
layer {
  name: "conv8_2_mbox_conf_perm"
  type: "Permute"
  bottom: "conv8_2_mbox_conf"
  top: "conv8_2_mbox_conf_perm"
  permute_param {
    order: 0
    order: 2
    order: 3
    order: 1
  }
}
layer {
  name: "conv8_2_mbox_conf_flat"
  type: "Flatten"
  bottom: "conv8_2_mbox_conf_perm"
  top: "conv8_2_mbox_conf_flat"
  flatten_param {
    axis: 1
  }
}
layer {
  name: "conv8_2_mbox_priorbox"
  type: "PriorBox"
  bottom: "conv8_2"
  bottom: "data"
  top: "conv8_2_mbox_priorbox"
  prior_box_param {
    min_size: 213
    max_size: 264
    aspect_ratio: 2
    flip: true
    clip: false
    variance: 0.1
    variance: 0.1
    variance: 0.2
    variance: 0.2
    step: 100
    offset: 0.5
  }
}
layer {
  name: "conv9_2_mbox_loc"
  type: "Convolution"
  bottom: "conv9_2"
  top: "conv9_2_mbox_loc"
  param {
    lr_mult: 1
    decay_mult: 1
  }
  param {
    lr_mult: 2
    decay_mult: 0
  }
  convolution_param {
    num_output: 16
    pad: 1
    kernel_size: 3
    stride: 1
    weight_filler {
      type: "xavier"
    }
    bias_filler {
      type: "constant"
      value: 0
    }
  }
}
layer {
  name: "conv9_2_mbox_loc_perm"
  type: "Permute"
  bottom: "conv9_2_mbox_loc"
  top: "conv9_2_mbox_loc_perm"
  permute_param {
    order: 0
    order: 2
    order: 3
    order: 1
  }
}
layer {
  name: "conv9_2_mbox_loc_flat"
  type: "Flatten"
  bottom: "conv9_2_mbox_loc_perm"
  top: "conv9_2_mbox_loc_flat"
  flatten_param {
    axis: 1
  }
}
layer {
  name: "conv9_2_mbox_conf"
  type: "Convolution"
  bottom: "conv9_2"
  top: "conv9_2_mbox_conf"
  param {
    lr_mult: 1
    decay_mult: 1
  }
  param {
    lr_mult: 2
    decay_mult: 0
  }
  convolution_param {
    num_output: 84
    pad: 1
    kernel_size: 3
    stride: 1
    weight_filler {
      type: "xavier"
    }
    bias_filler {
      type: "constant"
      value: 0
    }
  }
}
layer {
  name: "conv9_2_mbox_conf_perm"
  type: "Permute"
  bottom: "conv9_2_mbox_conf"
  top: "conv9_2_mbox_conf_perm"
  permute_param {
    order: 0
    order: 2
    order: 3
    order: 1
  }
}
layer {
  name: "conv9_2_mbox_conf_flat"
  type: "Flatten"
  bottom: "conv9_2_mbox_conf_perm"
  top: "conv9_2_mbox_conf_flat"
  flatten_param {
    axis: 1
  }
}
layer {
  name: "conv9_2_mbox_priorbox"
  type: "PriorBox"
  bottom: "conv9_2"
  bottom: "data"
  top: "conv9_2_mbox_priorbox"
  prior_box_param {
    min_size: 264
    max_size: 315
    aspect_ratio: 2
    flip: true
    clip: false
    variance: 0.1
    variance: 0.1
    variance: 0.2
    variance: 0.2
    step: 300
    offset: 0.5
  }
}
layer {
  name: "mbox_loc"
  type: "Concat"
  bottom: "conv4_3_norm_mbox_loc_flat"
  bottom: "fc7_mbox_loc_flat"
  bottom: "conv6_2_mbox_loc_flat"
  bottom: "conv7_2_mbox_loc_flat"
  bottom: "conv8_2_mbox_loc_flat"
  bottom: "conv9_2_mbox_loc_flat"
  top: "mbox_loc"
  concat_param {
    axis: 1
  }
}
layer {
  name: "mbox_conf"
  type: "Concat"
  bottom: "conv4_3_norm_mbox_conf_flat"
  bottom: "fc7_mbox_conf_flat"
  bottom: "conv6_2_mbox_conf_flat"
  bottom: "conv7_2_mbox_conf_flat"
  bottom: "conv8_2_mbox_conf_flat"
  bottom: "conv9_2_mbox_conf_flat"
  top: "mbox_conf"
  concat_param {
    axis: 1
  }
}
layer {
  name: "mbox_priorbox"
  type: "Concat"
  bottom: "conv4_3_norm_mbox_priorbox"
  bottom: "fc7_mbox_priorbox"
  bottom: "conv6_2_mbox_priorbox"
  bottom: "conv7_2_mbox_priorbox"
  bottom: "conv8_2_mbox_priorbox"
  bottom: "conv9_2_mbox_priorbox"
  top: "mbox_priorbox"
  concat_param {
    axis: 2
  }
}
layer {
  name: "mbox_conf_reshape"
  type: "Reshape"
  bottom: "mbox_conf"
  top: "mbox_conf_reshape"
  reshape_param {
    shape {
      dim: 0
      dim: -1
      dim: 21
    }
  }
}
layer {
  name: "mbox_conf_softmax"
  type: "Softmax"
  bottom: "mbox_conf_reshape"
  top: "mbox_conf_softmax"
  softmax_param {
    axis: 2
  }
}
layer {
  name: "mbox_conf_flatten"
  type: "Flatten"
  bottom: "mbox_conf_softmax"
  top: "mbox_conf_flatten"
  flatten_param {
    axis: 1
  }
}
layer {
  name: "detection_out"
  type: "DetectionOutput"
  bottom: "mbox_loc"
  bottom: "mbox_conf_flatten"
  bottom: "mbox_priorbox"
  top: "detection_out"
  include {
    phase: TEST
  }
  detection_output_param {
    num_classes: 21
    share_location: true
    background_label_id: 0
    nms_param {
      nms_threshold: 0.45
      top_k: 400
    }
    save_output_param {
      output_directory: "/home/yanyu/data/VOCdevkit/results/VOC2007/SSD_300x300/Main"
      output_name_prefix: "comp4_det_test_"
      output_format: "VOC"
      label_map_file: "data/VOC0712/labelmap_voc.prototxt"
      name_size_file: "data/VOC0712/test_name_size.txt"
      num_test_image: 4952
    }
    code_type: CENTER_SIZE
    keep_top_k: 200
    confidence_threshold: 0.01
  }
}
layer {
  name: "detection_eval"
  type: "DetectionEvaluate"
  bottom: "detection_out"
  bottom: "label"
  top: "detection_eval"
  include {
    phase: TEST
  }
  detection_evaluate_param {
    num_classes: 21
    background_label_id: 0
    overlap_threshold: 0.5
    evaluate_difficult_gt: false
    name_size_file: "data/VOC0712/test_name_size.txt"
  }
}
I0531 15:43:29.886124 11959 layer_factory.hpp:77] Creating layer data
I0531 15:43:29.886168 11959 net.cpp:100] Creating Layer data
I0531 15:43:29.886184 11959 net.cpp:408] data -> data
I0531 15:43:29.886193 11959 net.cpp:408] data -> label
I0531 15:43:29.886840 11973 db_lmdb.cpp:35] Opened lmdb examples/VOC0712/VOC0712_test_lmdb
I0531 15:43:29.888444 11959 annotated_data_layer.cpp:62] output data size: 8,3,300,300
I0531 15:43:29.900002 11959 net.cpp:150] Setting up data
I0531 15:43:29.900034 11959 net.cpp:157] Top shape: 8 3 300 300 (2160000)
I0531 15:43:29.900039 11959 net.cpp:157] Top shape: 1 1 2 8 (16)
I0531 15:43:29.900040 11959 net.cpp:165] Memory required for data: 8640064
I0531 15:43:29.900046 11959 layer_factory.hpp:77] Creating layer data_data_0_split
I0531 15:43:29.900058 11959 net.cpp:100] Creating Layer data_data_0_split
I0531 15:43:29.900063 11959 net.cpp:434] data_data_0_split <- data
I0531 15:43:29.900070 11959 net.cpp:408] data_data_0_split -> data_data_0_split_0
I0531 15:43:29.900079 11959 net.cpp:408] data_data_0_split -> data_data_0_split_1
I0531 15:43:29.900084 11959 net.cpp:408] data_data_0_split -> data_data_0_split_2
I0531 15:43:29.900100 11959 net.cpp:408] data_data_0_split -> data_data_0_split_3
I0531 15:43:29.900104 11959 net.cpp:408] data_data_0_split -> data_data_0_split_4
I0531 15:43:29.900123 11959 net.cpp:408] data_data_0_split -> data_data_0_split_5
I0531 15:43:29.900126 11959 net.cpp:408] data_data_0_split -> data_data_0_split_6
I0531 15:43:29.900296 11959 net.cpp:150] Setting up data_data_0_split
I0531 15:43:29.900302 11959 net.cpp:157] Top shape: 8 3 300 300 (2160000)
I0531 15:43:29.900306 11959 net.cpp:157] Top shape: 8 3 300 300 (2160000)
I0531 15:43:29.900310 11959 net.cpp:157] Top shape: 8 3 300 300 (2160000)
I0531 15:43:29.900313 11959 net.cpp:157] Top shape: 8 3 300 300 (2160000)
I0531 15:43:29.900316 11959 net.cpp:157] Top shape: 8 3 300 300 (2160000)
I0531 15:43:29.900331 11959 net.cpp:157] Top shape: 8 3 300 300 (2160000)
I0531 15:43:29.900333 11959 net.cpp:157] Top shape: 8 3 300 300 (2160000)
I0531 15:43:29.900334 11959 net.cpp:165] Memory required for data: 69120064
I0531 15:43:29.900337 11959 layer_factory.hpp:77] Creating layer conv1_1
I0531 15:43:29.900358 11959 net.cpp:100] Creating Layer conv1_1
I0531 15:43:29.900362 11959 net.cpp:434] conv1_1 <- data_data_0_split_0
I0531 15:43:29.900383 11959 net.cpp:408] conv1_1 -> conv1_1
I0531 15:43:29.902038 11959 net.cpp:150] Setting up conv1_1
I0531 15:43:29.902048 11959 net.cpp:157] Top shape: 8 64 300 300 (46080000)
I0531 15:43:29.902051 11959 net.cpp:165] Memory required for data: 253440064
I0531 15:43:29.902062 11959 layer_factory.hpp:77] Creating layer relu1_1
I0531 15:43:29.902070 11959 net.cpp:100] Creating Layer relu1_1
I0531 15:43:29.902076 11959 net.cpp:434] relu1_1 <- conv1_1
I0531 15:43:29.902081 11959 net.cpp:395] relu1_1 -> conv1_1 (in-place)
I0531 15:43:29.902400 11959 net.cpp:150] Setting up relu1_1
I0531 15:43:29.902407 11959 net.cpp:157] Top shape: 8 64 300 300 (46080000)
I0531 15:43:29.902411 11959 net.cpp:165] Memory required for data: 437760064
I0531 15:43:29.902415 11959 layer_factory.hpp:77] Creating layer conv1_2
I0531 15:43:29.902424 11959 net.cpp:100] Creating Layer conv1_2
I0531 15:43:29.902429 11959 net.cpp:434] conv1_2 <- conv1_1
I0531 15:43:29.902436 11959 net.cpp:408] conv1_2 -> conv1_2
I0531 15:43:29.905593 11959 net.cpp:150] Setting up conv1_2
I0531 15:43:29.905622 11959 net.cpp:157] Top shape: 8 64 300 300 (46080000)
I0531 15:43:29.905625 11959 net.cpp:165] Memory required for data: 622080064
I0531 15:43:29.905637 11959 layer_factory.hpp:77] Creating layer relu1_2
I0531 15:43:29.905659 11959 net.cpp:100] Creating Layer relu1_2
I0531 15:43:29.905663 11959 net.cpp:434] relu1_2 <- conv1_2
I0531 15:43:29.905671 11959 net.cpp:395] relu1_2 -> conv1_2 (in-place)
I0531 15:43:29.906440 11959 net.cpp:150] Setting up relu1_2
I0531 15:43:29.906450 11959 net.cpp:157] Top shape: 8 64 300 300 (46080000)
I0531 15:43:29.906453 11959 net.cpp:165] Memory required for data: 806400064
I0531 15:43:29.906456 11959 layer_factory.hpp:77] Creating layer pool1
I0531 15:43:29.906466 11959 net.cpp:100] Creating Layer pool1
I0531 15:43:29.906471 11959 net.cpp:434] pool1 <- conv1_2
I0531 15:43:29.906476 11959 net.cpp:408] pool1 -> pool1
I0531 15:43:29.906533 11959 net.cpp:150] Setting up pool1
I0531 15:43:29.906539 11959 net.cpp:157] Top shape: 8 64 150 150 (11520000)
I0531 15:43:29.906543 11959 net.cpp:165] Memory required for data: 852480064
I0531 15:43:29.906548 11959 layer_factory.hpp:77] Creating layer conv2_1
I0531 15:43:29.906558 11959 net.cpp:100] Creating Layer conv2_1
I0531 15:43:29.906561 11959 net.cpp:434] conv2_1 <- pool1
I0531 15:43:29.906569 11959 net.cpp:408] conv2_1 -> conv2_1
I0531 15:43:29.908452 11959 net.cpp:150] Setting up conv2_1
I0531 15:43:29.908463 11959 net.cpp:157] Top shape: 8 128 150 150 (23040000)
I0531 15:43:29.908468 11959 net.cpp:165] Memory required for data: 944640064
I0531 15:43:29.908478 11959 layer_factory.hpp:77] Creating layer relu2_1
I0531 15:43:29.908486 11959 net.cpp:100] Creating Layer relu2_1
I0531 15:43:29.908504 11959 net.cpp:434] relu2_1 <- conv2_1
I0531 15:43:29.908522 11959 net.cpp:395] relu2_1 -> conv2_1 (in-place)
I0531 15:43:29.908864 11959 net.cpp:150] Setting up relu2_1
I0531 15:43:29.908872 11959 net.cpp:157] Top shape: 8 128 150 150 (23040000)
I0531 15:43:29.908875 11959 net.cpp:165] Memory required for data: 1036800064
I0531 15:43:29.908879 11959 layer_factory.hpp:77] Creating layer conv2_2
I0531 15:43:29.908890 11959 net.cpp:100] Creating Layer conv2_2
I0531 15:43:29.908895 11959 net.cpp:434] conv2_2 <- conv2_1
I0531 15:43:29.908900 11959 net.cpp:408] conv2_2 -> conv2_2
I0531 15:43:29.912557 11959 net.cpp:150] Setting up conv2_2
I0531 15:43:29.912567 11959 net.cpp:157] Top shape: 8 128 150 150 (23040000)
I0531 15:43:29.912572 11959 net.cpp:165] Memory required for data: 1128960064
I0531 15:43:29.912591 11959 layer_factory.hpp:77] Creating layer relu2_2
I0531 15:43:29.912606 11959 net.cpp:100] Creating Layer relu2_2
I0531 15:43:29.912611 11959 net.cpp:434] relu2_2 <- conv2_2
I0531 15:43:29.912618 11959 net.cpp:395] relu2_2 -> conv2_2 (in-place)
I0531 15:43:29.912989 11959 net.cpp:150] Setting up relu2_2
I0531 15:43:29.912997 11959 net.cpp:157] Top shape: 8 128 150 150 (23040000)
I0531 15:43:29.913000 11959 net.cpp:165] Memory required for data: 1221120064
I0531 15:43:29.913004 11959 layer_factory.hpp:77] Creating layer pool2
I0531 15:43:29.913012 11959 net.cpp:100] Creating Layer pool2
I0531 15:43:29.913017 11959 net.cpp:434] pool2 <- conv2_2
I0531 15:43:29.913035 11959 net.cpp:408] pool2 -> pool2
I0531 15:43:29.913091 11959 net.cpp:150] Setting up pool2
I0531 15:43:29.913097 11959 net.cpp:157] Top shape: 8 128 75 75 (5760000)
I0531 15:43:29.913100 11959 net.cpp:165] Memory required for data: 1244160064
I0531 15:43:29.913117 11959 layer_factory.hpp:77] Creating layer conv3_1
I0531 15:43:29.913128 11959 net.cpp:100] Creating Layer conv3_1
I0531 15:43:29.913132 11959 net.cpp:434] conv3_1 <- pool2
I0531 15:43:29.913139 11959 net.cpp:408] conv3_1 -> conv3_1
I0531 15:43:29.916643 11959 net.cpp:150] Setting up conv3_1
I0531 15:43:29.916656 11959 net.cpp:157] Top shape: 8 256 75 75 (11520000)
I0531 15:43:29.916658 11959 net.cpp:165] Memory required for data: 1290240064
I0531 15:43:29.916669 11959 layer_factory.hpp:77] Creating layer relu3_1
I0531 15:43:29.916678 11959 net.cpp:100] Creating Layer relu3_1
I0531 15:43:29.916683 11959 net.cpp:434] relu3_1 <- conv3_1
I0531 15:43:29.916705 11959 net.cpp:395] relu3_1 -> conv3_1 (in-place)
I0531 15:43:29.917057 11959 net.cpp:150] Setting up relu3_1
I0531 15:43:29.917065 11959 net.cpp:157] Top shape: 8 256 75 75 (11520000)
I0531 15:43:29.917068 11959 net.cpp:165] Memory required for data: 1336320064
I0531 15:43:29.917073 11959 layer_factory.hpp:77] Creating layer conv3_2
I0531 15:43:29.917083 11959 net.cpp:100] Creating Layer conv3_2
I0531 15:43:29.917086 11959 net.cpp:434] conv3_2 <- conv3_1
I0531 15:43:29.917093 11959 net.cpp:408] conv3_2 -> conv3_2
I0531 15:43:29.921828 11959 net.cpp:150] Setting up conv3_2
I0531 15:43:29.921852 11959 net.cpp:157] Top shape: 8 256 75 75 (11520000)
I0531 15:43:29.921855 11959 net.cpp:165] Memory required for data: 1382400064
I0531 15:43:29.921880 11959 layer_factory.hpp:77] Creating layer relu3_2
I0531 15:43:29.921892 11959 net.cpp:100] Creating Layer relu3_2
I0531 15:43:29.921896 11959 net.cpp:434] relu3_2 <- conv3_2
I0531 15:43:29.921905 11959 net.cpp:395] relu3_2 -> conv3_2 (in-place)
I0531 15:43:29.922715 11959 net.cpp:150] Setting up relu3_2
I0531 15:43:29.922730 11959 net.cpp:157] Top shape: 8 256 75 75 (11520000)
I0531 15:43:29.922734 11959 net.cpp:165] Memory required for data: 1428480064
I0531 15:43:29.922739 11959 layer_factory.hpp:77] Creating layer conv3_3
I0531 15:43:29.922755 11959 net.cpp:100] Creating Layer conv3_3
I0531 15:43:29.922758 11959 net.cpp:434] conv3_3 <- conv3_2
I0531 15:43:29.922780 11959 net.cpp:408] conv3_3 -> conv3_3
I0531 15:43:29.927923 11959 net.cpp:150] Setting up conv3_3
I0531 15:43:29.927943 11959 net.cpp:157] Top shape: 8 256 75 75 (11520000)
I0531 15:43:29.927947 11959 net.cpp:165] Memory required for data: 1474560064
I0531 15:43:29.927955 11959 layer_factory.hpp:77] Creating layer relu3_3
I0531 15:43:29.927963 11959 net.cpp:100] Creating Layer relu3_3
I0531 15:43:29.927968 11959 net.cpp:434] relu3_3 <- conv3_3
I0531 15:43:29.927976 11959 net.cpp:395] relu3_3 -> conv3_3 (in-place)
I0531 15:43:29.928303 11959 net.cpp:150] Setting up relu3_3
I0531 15:43:29.928311 11959 net.cpp:157] Top shape: 8 256 75 75 (11520000)
I0531 15:43:29.928314 11959 net.cpp:165] Memory required for data: 1520640064
I0531 15:43:29.928318 11959 layer_factory.hpp:77] Creating layer pool3
I0531 15:43:29.928324 11959 net.cpp:100] Creating Layer pool3
I0531 15:43:29.928329 11959 net.cpp:434] pool3 <- conv3_3
I0531 15:43:29.928337 11959 net.cpp:408] pool3 -> pool3
I0531 15:43:29.928383 11959 net.cpp:150] Setting up pool3
I0531 15:43:29.928390 11959 net.cpp:157] Top shape: 8 256 38 38 (2957312)
I0531 15:43:29.928402 11959 net.cpp:165] Memory required for data: 1532469312
I0531 15:43:29.928406 11959 layer_factory.hpp:77] Creating layer conv4_1
I0531 15:43:29.928417 11959 net.cpp:100] Creating Layer conv4_1
I0531 15:43:29.928421 11959 net.cpp:434] conv4_1 <- pool3
I0531 15:43:29.928428 11959 net.cpp:408] conv4_1 -> conv4_1
I0531 15:43:29.935732 11959 net.cpp:150] Setting up conv4_1
I0531 15:43:29.935752 11959 net.cpp:157] Top shape: 8 512 38 38 (5914624)
I0531 15:43:29.935755 11959 net.cpp:165] Memory required for data: 1556127808
I0531 15:43:29.935765 11959 layer_factory.hpp:77] Creating layer relu4_1
I0531 15:43:29.935771 11959 net.cpp:100] Creating Layer relu4_1
I0531 15:43:29.935777 11959 net.cpp:434] relu4_1 <- conv4_1
I0531 15:43:29.935784 11959 net.cpp:395] relu4_1 -> conv4_1 (in-place)
I0531 15:43:29.936139 11959 net.cpp:150] Setting up relu4_1
I0531 15:43:29.936147 11959 net.cpp:157] Top shape: 8 512 38 38 (5914624)
I0531 15:43:29.936151 11959 net.cpp:165] Memory required for data: 1579786304
I0531 15:43:29.936154 11959 layer_factory.hpp:77] Creating layer conv4_2
I0531 15:43:29.936164 11959 net.cpp:100] Creating Layer conv4_2
I0531 15:43:29.936167 11959 net.cpp:434] conv4_2 <- conv4_1
I0531 15:43:29.936175 11959 net.cpp:408] conv4_2 -> conv4_2
I0531 15:43:29.948288 11959 net.cpp:150] Setting up conv4_2
I0531 15:43:29.948307 11959 net.cpp:157] Top shape: 8 512 38 38 (5914624)
I0531 15:43:29.948310 11959 net.cpp:165] Memory required for data: 1603444800
I0531 15:43:29.948324 11959 layer_factory.hpp:77] Creating layer relu4_2
I0531 15:43:29.948333 11959 net.cpp:100] Creating Layer relu4_2
I0531 15:43:29.948338 11959 net.cpp:434] relu4_2 <- conv4_2
I0531 15:43:29.948344 11959 net.cpp:395] relu4_2 -> conv4_2 (in-place)
I0531 15:43:29.949102 11959 net.cpp:150] Setting up relu4_2
I0531 15:43:29.949113 11959 net.cpp:157] Top shape: 8 512 38 38 (5914624)
I0531 15:43:29.949116 11959 net.cpp:165] Memory required for data: 1627103296
I0531 15:43:29.949120 11959 layer_factory.hpp:77] Creating layer conv4_3
I0531 15:43:29.949131 11959 net.cpp:100] Creating Layer conv4_3
I0531 15:43:29.949136 11959 net.cpp:434] conv4_3 <- conv4_2
I0531 15:43:29.949143 11959 net.cpp:408] conv4_3 -> conv4_3
I0531 15:43:29.961570 11959 net.cpp:150] Setting up conv4_3
I0531 15:43:29.961587 11959 net.cpp:157] Top shape: 8 512 38 38 (5914624)
I0531 15:43:29.961591 11959 net.cpp:165] Memory required for data: 1650761792
I0531 15:43:29.961599 11959 layer_factory.hpp:77] Creating layer relu4_3
I0531 15:43:29.961607 11959 net.cpp:100] Creating Layer relu4_3
I0531 15:43:29.961611 11959 net.cpp:434] relu4_3 <- conv4_3
I0531 15:43:29.961621 11959 net.cpp:395] relu4_3 -> conv4_3 (in-place)
I0531 15:43:29.961966 11959 net.cpp:150] Setting up relu4_3
I0531 15:43:29.961972 11959 net.cpp:157] Top shape: 8 512 38 38 (5914624)
I0531 15:43:29.961977 11959 net.cpp:165] Memory required for data: 1674420288
I0531 15:43:29.961979 11959 layer_factory.hpp:77] Creating layer conv4_3_relu4_3_0_split
I0531 15:43:29.961987 11959 net.cpp:100] Creating Layer conv4_3_relu4_3_0_split
I0531 15:43:29.961992 11959 net.cpp:434] conv4_3_relu4_3_0_split <- conv4_3
I0531 15:43:29.961997 11959 net.cpp:408] conv4_3_relu4_3_0_split -> conv4_3_relu4_3_0_split_0
I0531 15:43:29.962007 11959 net.cpp:408] conv4_3_relu4_3_0_split -> conv4_3_relu4_3_0_split_1
I0531 15:43:29.962121 11959 net.cpp:150] Setting up conv4_3_relu4_3_0_split
I0531 15:43:29.962138 11959 net.cpp:157] Top shape: 8 512 38 38 (5914624)
I0531 15:43:29.962142 11959 net.cpp:157] Top shape: 8 512 38 38 (5914624)
I0531 15:43:29.962146 11959 net.cpp:165] Memory required for data: 1721737280
I0531 15:43:29.962164 11959 layer_factory.hpp:77] Creating layer pool4
I0531 15:43:29.962172 11959 net.cpp:100] Creating Layer pool4
I0531 15:43:29.962175 11959 net.cpp:434] pool4 <- conv4_3_relu4_3_0_split_0
I0531 15:43:29.962193 11959 net.cpp:408] pool4 -> pool4
I0531 15:43:29.962267 11959 net.cpp:150] Setting up pool4
I0531 15:43:29.962272 11959 net.cpp:157] Top shape: 8 512 19 19 (1478656)
I0531 15:43:29.962275 11959 net.cpp:165] Memory required for data: 1727651904
I0531 15:43:29.962287 11959 layer_factory.hpp:77] Creating layer conv5_1
I0531 15:43:29.962297 11959 net.cpp:100] Creating Layer conv5_1
I0531 15:43:29.962301 11959 net.cpp:434] conv5_1 <- pool4
I0531 15:43:29.962322 11959 net.cpp:408] conv5_1 -> conv5_1
I0531 15:43:29.974714 11959 net.cpp:150] Setting up conv5_1
I0531 15:43:29.974732 11959 net.cpp:157] Top shape: 8 512 19 19 (1478656)
I0531 15:43:29.974736 11959 net.cpp:165] Memory required for data: 1733566528
I0531 15:43:29.974743 11959 layer_factory.hpp:77] Creating layer relu5_1
I0531 15:43:29.974752 11959 net.cpp:100] Creating Layer relu5_1
I0531 15:43:29.974761 11959 net.cpp:434] relu5_1 <- conv5_1
I0531 15:43:29.974766 11959 net.cpp:395] relu5_1 -> conv5_1 (in-place)
I0531 15:43:29.975114 11959 net.cpp:150] Setting up relu5_1
I0531 15:43:29.975122 11959 net.cpp:157] Top shape: 8 512 19 19 (1478656)
I0531 15:43:29.975126 11959 net.cpp:165] Memory required for data: 1739481152
I0531 15:43:29.975128 11959 layer_factory.hpp:77] Creating layer conv5_2
I0531 15:43:29.975138 11959 net.cpp:100] Creating Layer conv5_2
I0531 15:43:29.975143 11959 net.cpp:434] conv5_2 <- conv5_1
I0531 15:43:29.975152 11959 net.cpp:408] conv5_2 -> conv5_2
I0531 15:43:29.988191 11959 net.cpp:150] Setting up conv5_2
I0531 15:43:29.988207 11959 net.cpp:157] Top shape: 8 512 19 19 (1478656)
I0531 15:43:29.988211 11959 net.cpp:165] Memory required for data: 1745395776
I0531 15:43:29.988219 11959 layer_factory.hpp:77] Creating layer relu5_2
I0531 15:43:29.988227 11959 net.cpp:100] Creating Layer relu5_2
I0531 15:43:29.988232 11959 net.cpp:434] relu5_2 <- conv5_2
I0531 15:43:29.988242 11959 net.cpp:395] relu5_2 -> conv5_2 (in-place)
I0531 15:43:29.989013 11959 net.cpp:150] Setting up relu5_2
I0531 15:43:29.989022 11959 net.cpp:157] Top shape: 8 512 19 19 (1478656)
I0531 15:43:29.989027 11959 net.cpp:165] Memory required for data: 1751310400
I0531 15:43:29.989030 11959 layer_factory.hpp:77] Creating layer conv5_3
I0531 15:43:29.989042 11959 net.cpp:100] Creating Layer conv5_3
I0531 15:43:29.989045 11959 net.cpp:434] conv5_3 <- conv5_2
I0531 15:43:29.989053 11959 net.cpp:408] conv5_3 -> conv5_3
I0531 15:43:30.001233 11959 net.cpp:150] Setting up conv5_3
I0531 15:43:30.001250 11959 net.cpp:157] Top shape: 8 512 19 19 (1478656)
I0531 15:43:30.001253 11959 net.cpp:165] Memory required for data: 1757225024
I0531 15:43:30.001260 11959 layer_factory.hpp:77] Creating layer relu5_3
I0531 15:43:30.001274 11959 net.cpp:100] Creating Layer relu5_3
I0531 15:43:30.001279 11959 net.cpp:434] relu5_3 <- conv5_3
I0531 15:43:30.001286 11959 net.cpp:395] relu5_3 -> conv5_3 (in-place)
I0531 15:43:30.001646 11959 net.cpp:150] Setting up relu5_3
I0531 15:43:30.001654 11959 net.cpp:157] Top shape: 8 512 19 19 (1478656)
I0531 15:43:30.001657 11959 net.cpp:165] Memory required for data: 1763139648
I0531 15:43:30.001662 11959 layer_factory.hpp:77] Creating layer pool5
I0531 15:43:30.001669 11959 net.cpp:100] Creating Layer pool5
I0531 15:43:30.001673 11959 net.cpp:434] pool5 <- conv5_3
I0531 15:43:30.001678 11959 net.cpp:408] pool5 -> pool5
I0531 15:43:30.001722 11959 net.cpp:150] Setting up pool5
I0531 15:43:30.001727 11959 net.cpp:157] Top shape: 8 512 19 19 (1478656)
I0531 15:43:30.001731 11959 net.cpp:165] Memory required for data: 1769054272
I0531 15:43:30.001734 11959 layer_factory.hpp:77] Creating layer fc6
I0531 15:43:30.001745 11959 net.cpp:100] Creating Layer fc6
I0531 15:43:30.001749 11959 net.cpp:434] fc6 <- pool5
I0531 15:43:30.001755 11959 net.cpp:408] fc6 -> fc6
I0531 15:43:30.023197 11959 net.cpp:150] Setting up fc6
I0531 15:43:30.023216 11959 net.cpp:157] Top shape: 8 1024 19 19 (2957312)
I0531 15:43:30.023217 11959 net.cpp:165] Memory required for data: 1780883520
I0531 15:43:30.023226 11959 layer_factory.hpp:77] Creating layer relu6
I0531 15:43:30.023233 11959 net.cpp:100] Creating Layer relu6
I0531 15:43:30.023237 11959 net.cpp:434] relu6 <- fc6
I0531 15:43:30.023247 11959 net.cpp:395] relu6 -> fc6 (in-place)
I0531 15:43:30.023690 11959 net.cpp:150] Setting up relu6
I0531 15:43:30.023706 11959 net.cpp:157] Top shape: 8 1024 19 19 (2957312)
I0531 15:43:30.023710 11959 net.cpp:165] Memory required for data: 1792712768
I0531 15:43:30.023713 11959 layer_factory.hpp:77] Creating layer fc7
I0531 15:43:30.023723 11959 net.cpp:100] Creating Layer fc7
I0531 15:43:30.023726 11959 net.cpp:434] fc7 <- fc6
I0531 15:43:30.023735 11959 net.cpp:408] fc7 -> fc7
I0531 15:43:30.030853 11959 net.cpp:150] Setting up fc7
I0531 15:43:30.030870 11959 net.cpp:157] Top shape: 8 1024 19 19 (2957312)
I0531 15:43:30.030874 11959 net.cpp:165] Memory required for data: 1804542016
I0531 15:43:30.030880 11959 layer_factory.hpp:77] Creating layer relu7
I0531 15:43:30.030889 11959 net.cpp:100] Creating Layer relu7
I0531 15:43:30.030894 11959 net.cpp:434] relu7 <- fc7
I0531 15:43:30.030902 11959 net.cpp:395] relu7 -> fc7 (in-place)
I0531 15:43:30.031244 11959 net.cpp:150] Setting up relu7
I0531 15:43:30.031252 11959 net.cpp:157] Top shape: 8 1024 19 19 (2957312)
I0531 15:43:30.031255 11959 net.cpp:165] Memory required for data: 1816371264
I0531 15:43:30.031260 11959 layer_factory.hpp:77] Creating layer fc7_relu7_0_split
I0531 15:43:30.031266 11959 net.cpp:100] Creating Layer fc7_relu7_0_split
I0531 15:43:30.031270 11959 net.cpp:434] fc7_relu7_0_split <- fc7
I0531 15:43:30.031276 11959 net.cpp:408] fc7_relu7_0_split -> fc7_relu7_0_split_0
I0531 15:43:30.031286 11959 net.cpp:408] fc7_relu7_0_split -> fc7_relu7_0_split_1
I0531 15:43:30.031296 11959 net.cpp:408] fc7_relu7_0_split -> fc7_relu7_0_split_2
I0531 15:43:30.031302 11959 net.cpp:408] fc7_relu7_0_split -> fc7_relu7_0_split_3
I0531 15:43:30.031368 11959 net.cpp:150] Setting up fc7_relu7_0_split
I0531 15:43:30.031375 11959 net.cpp:157] Top shape: 8 1024 19 19 (2957312)
I0531 15:43:30.031381 11959 net.cpp:157] Top shape: 8 1024 19 19 (2957312)
I0531 15:43:30.031385 11959 net.cpp:157] Top shape: 8 1024 19 19 (2957312)
I0531 15:43:30.031389 11959 net.cpp:157] Top shape: 8 1024 19 19 (2957312)
I0531 15:43:30.031394 11959 net.cpp:165] Memory required for data: 1863688256
I0531 15:43:30.031396 11959 layer_factory.hpp:77] Creating layer conv6_1
I0531 15:43:30.031407 11959 net.cpp:100] Creating Layer conv6_1
I0531 15:43:30.031410 11959 net.cpp:434] conv6_1 <- fc7_relu7_0_split_0
I0531 15:43:30.031417 11959 net.cpp:408] conv6_1 -> conv6_1
I0531 15:43:30.036953 11959 net.cpp:150] Setting up conv6_1
I0531 15:43:30.036970 11959 net.cpp:157] Top shape: 8 256 19 19 (739328)
I0531 15:43:30.036974 11959 net.cpp:165] Memory required for data: 1866645568
I0531 15:43:30.036998 11959 layer_factory.hpp:77] Creating layer conv6_1_relu
I0531 15:43:30.037005 11959 net.cpp:100] Creating Layer conv6_1_relu
I0531 15:43:30.037009 11959 net.cpp:434] conv6_1_relu <- conv6_1
I0531 15:43:30.037019 11959 net.cpp:395] conv6_1_relu -> conv6_1 (in-place)
I0531 15:43:30.037739 11959 net.cpp:150] Setting up conv6_1_relu
I0531 15:43:30.037748 11959 net.cpp:157] Top shape: 8 256 19 19 (739328)
I0531 15:43:30.037751 11959 net.cpp:165] Memory required for data: 1869602880
I0531 15:43:30.037755 11959 layer_factory.hpp:77] Creating layer conv6_2
I0531 15:43:30.037766 11959 net.cpp:100] Creating Layer conv6_2
I0531 15:43:30.037771 11959 net.cpp:434] conv6_2 <- conv6_1
I0531 15:43:30.037778 11959 net.cpp:408] conv6_2 -> conv6_2
I0531 15:43:30.046175 11959 net.cpp:150] Setting up conv6_2
I0531 15:43:30.046195 11959 net.cpp:157] Top shape: 8 512 10 10 (409600)
I0531 15:43:30.046212 11959 net.cpp:165] Memory required for data: 1871241280
I0531 15:43:30.046227 11959 layer_factory.hpp:77] Creating layer conv6_2_relu
I0531 15:43:30.046238 11959 net.cpp:100] Creating Layer conv6_2_relu
I0531 15:43:30.046255 11959 net.cpp:434] conv6_2_relu <- conv6_2
I0531 15:43:30.046263 11959 net.cpp:395] conv6_2_relu -> conv6_2 (in-place)
I0531 15:43:30.046654 11959 net.cpp:150] Setting up conv6_2_relu
I0531 15:43:30.046661 11959 net.cpp:157] Top shape: 8 512 10 10 (409600)
I0531 15:43:30.046665 11959 net.cpp:165] Memory required for data: 1872879680
I0531 15:43:30.046669 11959 layer_factory.hpp:77] Creating layer conv6_2_conv6_2_relu_0_split
I0531 15:43:30.046689 11959 net.cpp:100] Creating Layer conv6_2_conv6_2_relu_0_split
I0531 15:43:30.046694 11959 net.cpp:434] conv6_2_conv6_2_relu_0_split <- conv6_2
I0531 15:43:30.046700 11959 net.cpp:408] conv6_2_conv6_2_relu_0_split -> conv6_2_conv6_2_relu_0_split_0
I0531 15:43:30.046708 11959 net.cpp:408] conv6_2_conv6_2_relu_0_split -> conv6_2_conv6_2_relu_0_split_1
I0531 15:43:30.046716 11959 net.cpp:408] conv6_2_conv6_2_relu_0_split -> conv6_2_conv6_2_relu_0_split_2
I0531 15:43:30.046737 11959 net.cpp:408] conv6_2_conv6_2_relu_0_split -> conv6_2_conv6_2_relu_0_split_3
I0531 15:43:30.046819 11959 net.cpp:150] Setting up conv6_2_conv6_2_relu_0_split
I0531 15:43:30.046824 11959 net.cpp:157] Top shape: 8 512 10 10 (409600)
I0531 15:43:30.046828 11959 net.cpp:157] Top shape: 8 512 10 10 (409600)
I0531 15:43:30.046847 11959 net.cpp:157] Top shape: 8 512 10 10 (409600)
I0531 15:43:30.046854 11959 net.cpp:157] Top shape: 8 512 10 10 (409600)
I0531 15:43:30.046856 11959 net.cpp:165] Memory required for data: 1879433280
I0531 15:43:30.046859 11959 layer_factory.hpp:77] Creating layer conv7_1
I0531 15:43:30.046881 11959 net.cpp:100] Creating Layer conv7_1
I0531 15:43:30.046898 11959 net.cpp:434] conv7_1 <- conv6_2_conv6_2_relu_0_split_0
I0531 15:43:30.046905 11959 net.cpp:408] conv7_1 -> conv7_1
I0531 15:43:30.048746 11959 net.cpp:150] Setting up conv7_1
I0531 15:43:30.048758 11959 net.cpp:157] Top shape: 8 128 10 10 (102400)
I0531 15:43:30.048761 11959 net.cpp:165] Memory required for data: 1879842880
I0531 15:43:30.048780 11959 layer_factory.hpp:77] Creating layer conv7_1_relu
I0531 15:43:30.048786 11959 net.cpp:100] Creating Layer conv7_1_relu
I0531 15:43:30.048791 11959 net.cpp:434] conv7_1_relu <- conv7_1
I0531 15:43:30.048796 11959 net.cpp:395] conv7_1_relu -> conv7_1 (in-place)
I0531 15:43:30.049140 11959 net.cpp:150] Setting up conv7_1_relu
I0531 15:43:30.049147 11959 net.cpp:157] Top shape: 8 128 10 10 (102400)
I0531 15:43:30.049150 11959 net.cpp:165] Memory required for data: 1880252480
I0531 15:43:30.049154 11959 layer_factory.hpp:77] Creating layer conv7_2
I0531 15:43:30.049180 11959 net.cpp:100] Creating Layer conv7_2
I0531 15:43:30.049183 11959 net.cpp:434] conv7_2 <- conv7_1
I0531 15:43:30.049190 11959 net.cpp:408] conv7_2 -> conv7_2
I0531 15:43:30.052733 11959 net.cpp:150] Setting up conv7_2
I0531 15:43:30.052748 11959 net.cpp:157] Top shape: 8 256 5 5 (51200)
I0531 15:43:30.052752 11959 net.cpp:165] Memory required for data: 1880457280
I0531 15:43:30.052772 11959 layer_factory.hpp:77] Creating layer conv7_2_relu
I0531 15:43:30.052779 11959 net.cpp:100] Creating Layer conv7_2_relu
I0531 15:43:30.052784 11959 net.cpp:434] conv7_2_relu <- conv7_2
I0531 15:43:30.052789 11959 net.cpp:395] conv7_2_relu -> conv7_2 (in-place)
I0531 15:43:30.053483 11959 net.cpp:150] Setting up conv7_2_relu
I0531 15:43:30.053493 11959 net.cpp:157] Top shape: 8 256 5 5 (51200)
I0531 15:43:30.053496 11959 net.cpp:165] Memory required for data: 1880662080
I0531 15:43:30.053514 11959 layer_factory.hpp:77] Creating layer conv7_2_conv7_2_relu_0_split
I0531 15:43:30.053521 11959 net.cpp:100] Creating Layer conv7_2_conv7_2_relu_0_split
I0531 15:43:30.053526 11959 net.cpp:434] conv7_2_conv7_2_relu_0_split <- conv7_2
I0531 15:43:30.053534 11959 net.cpp:408] conv7_2_conv7_2_relu_0_split -> conv7_2_conv7_2_relu_0_split_0
I0531 15:43:30.053541 11959 net.cpp:408] conv7_2_conv7_2_relu_0_split -> conv7_2_conv7_2_relu_0_split_1
I0531 15:43:30.053550 11959 net.cpp:408] conv7_2_conv7_2_relu_0_split -> conv7_2_conv7_2_relu_0_split_2
I0531 15:43:30.053557 11959 net.cpp:408] conv7_2_conv7_2_relu_0_split -> conv7_2_conv7_2_relu_0_split_3
I0531 15:43:30.053668 11959 net.cpp:150] Setting up conv7_2_conv7_2_relu_0_split
I0531 15:43:30.053673 11959 net.cpp:157] Top shape: 8 256 5 5 (51200)
I0531 15:43:30.053676 11959 net.cpp:157] Top shape: 8 256 5 5 (51200)
I0531 15:43:30.053695 11959 net.cpp:157] Top shape: 8 256 5 5 (51200)
I0531 15:43:30.053699 11959 net.cpp:157] Top shape: 8 256 5 5 (51200)
I0531 15:43:30.053704 11959 net.cpp:165] Memory required for data: 1881481280
I0531 15:43:30.053715 11959 layer_factory.hpp:77] Creating layer conv8_1
I0531 15:43:30.053726 11959 net.cpp:100] Creating Layer conv8_1
I0531 15:43:30.053731 11959 net.cpp:434] conv8_1 <- conv7_2_conv7_2_relu_0_split_0
I0531 15:43:30.053737 11959 net.cpp:408] conv8_1 -> conv8_1
I0531 15:43:30.055450 11959 net.cpp:150] Setting up conv8_1
I0531 15:43:30.055459 11959 net.cpp:157] Top shape: 8 128 5 5 (25600)
I0531 15:43:30.055464 11959 net.cpp:165] Memory required for data: 1881583680
I0531 15:43:30.055485 11959 layer_factory.hpp:77] Creating layer conv8_1_relu
I0531 15:43:30.055493 11959 net.cpp:100] Creating Layer conv8_1_relu
I0531 15:43:30.055497 11959 net.cpp:434] conv8_1_relu <- conv8_1
I0531 15:43:30.055503 11959 net.cpp:395] conv8_1_relu -> conv8_1 (in-place)
I0531 15:43:30.055841 11959 net.cpp:150] Setting up conv8_1_relu
I0531 15:43:30.055850 11959 net.cpp:157] Top shape: 8 128 5 5 (25600)
I0531 15:43:30.055852 11959 net.cpp:165] Memory required for data: 1881686080
I0531 15:43:30.055871 11959 layer_factory.hpp:77] Creating layer conv8_2
I0531 15:43:30.055879 11959 net.cpp:100] Creating Layer conv8_2
I0531 15:43:30.055883 11959 net.cpp:434] conv8_2 <- conv8_1
I0531 15:43:30.055891 11959 net.cpp:408] conv8_2 -> conv8_2
I0531 15:43:30.059686 11959 net.cpp:150] Setting up conv8_2
I0531 15:43:30.059715 11959 net.cpp:157] Top shape: 8 256 3 3 (18432)
I0531 15:43:30.059720 11959 net.cpp:165] Memory required for data: 1881759808
I0531 15:43:30.059727 11959 layer_factory.hpp:77] Creating layer conv8_2_relu
I0531 15:43:30.059736 11959 net.cpp:100] Creating Layer conv8_2_relu
I0531 15:43:30.059741 11959 net.cpp:434] conv8_2_relu <- conv8_2
I0531 15:43:30.059747 11959 net.cpp:395] conv8_2_relu -> conv8_2 (in-place)
I0531 15:43:30.060093 11959 net.cpp:150] Setting up conv8_2_relu
I0531 15:43:30.060101 11959 net.cpp:157] Top shape: 8 256 3 3 (18432)
I0531 15:43:30.060104 11959 net.cpp:165] Memory required for data: 1881833536
I0531 15:43:30.060123 11959 layer_factory.hpp:77] Creating layer conv8_2_conv8_2_relu_0_split
I0531 15:43:30.060129 11959 net.cpp:100] Creating Layer conv8_2_conv8_2_relu_0_split
I0531 15:43:30.060147 11959 net.cpp:434] conv8_2_conv8_2_relu_0_split <- conv8_2
I0531 15:43:30.060153 11959 net.cpp:408] conv8_2_conv8_2_relu_0_split -> conv8_2_conv8_2_relu_0_split_0
I0531 15:43:30.060175 11959 net.cpp:408] conv8_2_conv8_2_relu_0_split -> conv8_2_conv8_2_relu_0_split_1
I0531 15:43:30.060195 11959 net.cpp:408] conv8_2_conv8_2_relu_0_split -> conv8_2_conv8_2_relu_0_split_2
I0531 15:43:30.060217 11959 net.cpp:408] conv8_2_conv8_2_relu_0_split -> conv8_2_conv8_2_relu_0_split_3
I0531 15:43:30.060300 11959 net.cpp:150] Setting up conv8_2_conv8_2_relu_0_split
I0531 15:43:30.060305 11959 net.cpp:157] Top shape: 8 256 3 3 (18432)
I0531 15:43:30.060309 11959 net.cpp:157] Top shape: 8 256 3 3 (18432)
I0531 15:43:30.060328 11959 net.cpp:157] Top shape: 8 256 3 3 (18432)
I0531 15:43:30.060333 11959 net.cpp:157] Top shape: 8 256 3 3 (18432)
I0531 15:43:30.060335 11959 net.cpp:165] Memory required for data: 1882128448
I0531 15:43:30.060338 11959 layer_factory.hpp:77] Creating layer conv9_1
I0531 15:43:30.060349 11959 net.cpp:100] Creating Layer conv9_1
I0531 15:43:30.060353 11959 net.cpp:434] conv9_1 <- conv8_2_conv8_2_relu_0_split_0
I0531 15:43:30.060360 11959 net.cpp:408] conv9_1 -> conv9_1
I0531 15:43:30.062855 11959 net.cpp:150] Setting up conv9_1
I0531 15:43:30.062867 11959 net.cpp:157] Top shape: 8 128 3 3 (9216)
I0531 15:43:30.062871 11959 net.cpp:165] Memory required for data: 1882165312
I0531 15:43:30.062892 11959 layer_factory.hpp:77] Creating layer conv9_1_relu
I0531 15:43:30.062909 11959 net.cpp:100] Creating Layer conv9_1_relu
I0531 15:43:30.062914 11959 net.cpp:434] conv9_1_relu <- conv9_1
I0531 15:43:30.062919 11959 net.cpp:395] conv9_1_relu -> conv9_1 (in-place)
I0531 15:43:30.063611 11959 net.cpp:150] Setting up conv9_1_relu
I0531 15:43:30.063621 11959 net.cpp:157] Top shape: 8 128 3 3 (9216)
I0531 15:43:30.063624 11959 net.cpp:165] Memory required for data: 1882202176
I0531 15:43:30.063642 11959 layer_factory.hpp:77] Creating layer conv9_2
I0531 15:43:30.063661 11959 net.cpp:100] Creating Layer conv9_2
I0531 15:43:30.063665 11959 net.cpp:434] conv9_2 <- conv9_1
I0531 15:43:30.063673 11959 net.cpp:408] conv9_2 -> conv9_2
I0531 15:43:30.067723 11959 net.cpp:150] Setting up conv9_2
I0531 15:43:30.067759 11959 net.cpp:157] Top shape: 8 256 1 1 (2048)
I0531 15:43:30.067762 11959 net.cpp:165] Memory required for data: 1882210368
I0531 15:43:30.067772 11959 layer_factory.hpp:77] Creating layer conv9_2_relu
I0531 15:43:30.067780 11959 net.cpp:100] Creating Layer conv9_2_relu
I0531 15:43:30.067785 11959 net.cpp:434] conv9_2_relu <- conv9_2
I0531 15:43:30.067793 11959 net.cpp:395] conv9_2_relu -> conv9_2 (in-place)
I0531 15:43:30.068195 11959 net.cpp:150] Setting up conv9_2_relu
I0531 15:43:30.068203 11959 net.cpp:157] Top shape: 8 256 1 1 (2048)
I0531 15:43:30.068205 11959 net.cpp:165] Memory required for data: 1882218560
I0531 15:43:30.068207 11959 layer_factory.hpp:77] Creating layer conv9_2_conv9_2_relu_0_split
I0531 15:43:30.068214 11959 net.cpp:100] Creating Layer conv9_2_conv9_2_relu_0_split
I0531 15:43:30.068218 11959 net.cpp:434] conv9_2_conv9_2_relu_0_split <- conv9_2
I0531 15:43:30.068226 11959 net.cpp:408] conv9_2_conv9_2_relu_0_split -> conv9_2_conv9_2_relu_0_split_0
I0531 15:43:30.068234 11959 net.cpp:408] conv9_2_conv9_2_relu_0_split -> conv9_2_conv9_2_relu_0_split_1
I0531 15:43:30.068243 11959 net.cpp:408] conv9_2_conv9_2_relu_0_split -> conv9_2_conv9_2_relu_0_split_2
I0531 15:43:30.068310 11959 net.cpp:150] Setting up conv9_2_conv9_2_relu_0_split
I0531 15:43:30.068315 11959 net.cpp:157] Top shape: 8 256 1 1 (2048)
I0531 15:43:30.068317 11959 net.cpp:157] Top shape: 8 256 1 1 (2048)
I0531 15:43:30.068322 11959 net.cpp:157] Top shape: 8 256 1 1 (2048)
I0531 15:43:30.068325 11959 net.cpp:165] Memory required for data: 1882243136
I0531 15:43:30.068330 11959 layer_factory.hpp:77] Creating layer conv4_3_norm
I0531 15:43:30.068338 11959 net.cpp:100] Creating Layer conv4_3_norm
I0531 15:43:30.068343 11959 net.cpp:434] conv4_3_norm <- conv4_3_relu4_3_0_split_1
I0531 15:43:30.068351 11959 net.cpp:408] conv4_3_norm -> conv4_3_norm
I0531 15:43:30.068533 11959 net.cpp:150] Setting up conv4_3_norm
I0531 15:43:30.068541 11959 net.cpp:157] Top shape: 8 512 38 38 (5914624)
I0531 15:43:30.068544 11959 net.cpp:165] Memory required for data: 1905901632
I0531 15:43:30.068549 11959 layer_factory.hpp:77] Creating layer conv4_3_norm_conv4_3_norm_0_split
I0531 15:43:30.068555 11959 net.cpp:100] Creating Layer conv4_3_norm_conv4_3_norm_0_split
I0531 15:43:30.068559 11959 net.cpp:434] conv4_3_norm_conv4_3_norm_0_split <- conv4_3_norm
I0531 15:43:30.068567 11959 net.cpp:408] conv4_3_norm_conv4_3_norm_0_split -> conv4_3_norm_conv4_3_norm_0_split_0
I0531 15:43:30.068575 11959 net.cpp:408] conv4_3_norm_conv4_3_norm_0_split -> conv4_3_norm_conv4_3_norm_0_split_1
I0531 15:43:30.068583 11959 net.cpp:408] conv4_3_norm_conv4_3_norm_0_split -> conv4_3_norm_conv4_3_norm_0_split_2
I0531 15:43:30.068650 11959 net.cpp:150] Setting up conv4_3_norm_conv4_3_norm_0_split
I0531 15:43:30.068655 11959 net.cpp:157] Top shape: 8 512 38 38 (5914624)
I0531 15:43:30.068657 11959 net.cpp:157] Top shape: 8 512 38 38 (5914624)
I0531 15:43:30.068661 11959 net.cpp:157] Top shape: 8 512 38 38 (5914624)
I0531 15:43:30.068665 11959 net.cpp:165] Memory required for data: 1976877120
I0531 15:43:30.068668 11959 layer_factory.hpp:77] Creating layer conv4_3_norm_mbox_loc
I0531 15:43:30.068678 11959 net.cpp:100] Creating Layer conv4_3_norm_mbox_loc
I0531 15:43:30.068683 11959 net.cpp:434] conv4_3_norm_mbox_loc <- conv4_3_norm_conv4_3_norm_0_split_0
I0531 15:43:30.068691 11959 net.cpp:408] conv4_3_norm_mbox_loc -> conv4_3_norm_mbox_loc
I0531 15:43:30.071034 11959 net.cpp:150] Setting up conv4_3_norm_mbox_loc
I0531 15:43:30.071043 11959 net.cpp:157] Top shape: 8 16 38 38 (184832)
I0531 15:43:30.071046 11959 net.cpp:165] Memory required for data: 1977616448
I0531 15:43:30.071051 11959 layer_factory.hpp:77] Creating layer conv4_3_norm_mbox_loc_perm
I0531 15:43:30.071059 11959 net.cpp:100] Creating Layer conv4_3_norm_mbox_loc_perm
I0531 15:43:30.071074 11959 net.cpp:434] conv4_3_norm_mbox_loc_perm <- conv4_3_norm_mbox_loc
I0531 15:43:30.071082 11959 net.cpp:408] conv4_3_norm_mbox_loc_perm -> conv4_3_norm_mbox_loc_perm
I0531 15:43:30.071200 11959 net.cpp:150] Setting up conv4_3_norm_mbox_loc_perm
I0531 15:43:30.071205 11959 net.cpp:157] Top shape: 8 38 38 16 (184832)
I0531 15:43:30.071208 11959 net.cpp:165] Memory required for data: 1978355776
I0531 15:43:30.071211 11959 layer_factory.hpp:77] Creating layer conv4_3_norm_mbox_loc_flat
I0531 15:43:30.071218 11959 net.cpp:100] Creating Layer conv4_3_norm_mbox_loc_flat
I0531 15:43:30.071223 11959 net.cpp:434] conv4_3_norm_mbox_loc_flat <- conv4_3_norm_mbox_loc_perm
I0531 15:43:30.071229 11959 net.cpp:408] conv4_3_norm_mbox_loc_flat -> conv4_3_norm_mbox_loc_flat
I0531 15:43:30.071266 11959 net.cpp:150] Setting up conv4_3_norm_mbox_loc_flat
I0531 15:43:30.071271 11959 net.cpp:157] Top shape: 8 23104 (184832)
I0531 15:43:30.071274 11959 net.cpp:165] Memory required for data: 1979095104
I0531 15:43:30.071279 11959 layer_factory.hpp:77] Creating layer conv4_3_norm_mbox_conf
I0531 15:43:30.071293 11959 net.cpp:100] Creating Layer conv4_3_norm_mbox_conf
I0531 15:43:30.071298 11959 net.cpp:434] conv4_3_norm_mbox_conf <- conv4_3_norm_conv4_3_norm_0_split_1
I0531 15:43:30.071305 11959 net.cpp:408] conv4_3_norm_mbox_conf -> conv4_3_norm_mbox_conf
I0531 15:43:30.076882 11959 net.cpp:150] Setting up conv4_3_norm_mbox_conf
I0531 15:43:30.076912 11959 net.cpp:157] Top shape: 8 84 38 38 (970368)
I0531 15:43:30.076915 11959 net.cpp:165] Memory required for data: 1982976576
I0531 15:43:30.076921 11959 layer_factory.hpp:77] Creating layer conv4_3_norm_mbox_conf_perm
I0531 15:43:30.076930 11959 net.cpp:100] Creating Layer conv4_3_norm_mbox_conf_perm
I0531 15:43:30.076934 11959 net.cpp:434] conv4_3_norm_mbox_conf_perm <- conv4_3_norm_mbox_conf
I0531 15:43:30.076941 11959 net.cpp:408] conv4_3_norm_mbox_conf_perm -> conv4_3_norm_mbox_conf_perm
I0531 15:43:30.077069 11959 net.cpp:150] Setting up conv4_3_norm_mbox_conf_perm
I0531 15:43:30.077075 11959 net.cpp:157] Top shape: 8 38 38 84 (970368)
I0531 15:43:30.077077 11959 net.cpp:165] Memory required for data: 1986858048
I0531 15:43:30.077080 11959 layer_factory.hpp:77] Creating layer conv4_3_norm_mbox_conf_flat
I0531 15:43:30.077085 11959 net.cpp:100] Creating Layer conv4_3_norm_mbox_conf_flat
I0531 15:43:30.077087 11959 net.cpp:434] conv4_3_norm_mbox_conf_flat <- conv4_3_norm_mbox_conf_perm
I0531 15:43:30.077091 11959 net.cpp:408] conv4_3_norm_mbox_conf_flat -> conv4_3_norm_mbox_conf_flat
I0531 15:43:30.077116 11959 net.cpp:150] Setting up conv4_3_norm_mbox_conf_flat
I0531 15:43:30.077121 11959 net.cpp:157] Top shape: 8 121296 (970368)
I0531 15:43:30.077126 11959 net.cpp:165] Memory required for data: 1990739520
I0531 15:43:30.077129 11959 layer_factory.hpp:77] Creating layer conv4_3_norm_mbox_priorbox
I0531 15:43:30.077138 11959 net.cpp:100] Creating Layer conv4_3_norm_mbox_priorbox
I0531 15:43:30.077142 11959 net.cpp:434] conv4_3_norm_mbox_priorbox <- conv4_3_norm_conv4_3_norm_0_split_2
I0531 15:43:30.077149 11959 net.cpp:434] conv4_3_norm_mbox_priorbox <- data_data_0_split_1
I0531 15:43:30.077157 11959 net.cpp:408] conv4_3_norm_mbox_priorbox -> conv4_3_norm_mbox_priorbox
I0531 15:43:30.077190 11959 net.cpp:150] Setting up conv4_3_norm_mbox_priorbox
I0531 15:43:30.077195 11959 net.cpp:157] Top shape: 1 2 23104 (46208)
I0531 15:43:30.077198 11959 net.cpp:165] Memory required for data: 1990924352
I0531 15:43:30.077200 11959 layer_factory.hpp:77] Creating layer fc7_mbox_loc
I0531 15:43:30.077211 11959 net.cpp:100] Creating Layer fc7_mbox_loc
I0531 15:43:30.077216 11959 net.cpp:434] fc7_mbox_loc <- fc7_relu7_0_split_1
I0531 15:43:30.077224 11959 net.cpp:408] fc7_mbox_loc -> fc7_mbox_loc
I0531 15:43:30.079969 11959 net.cpp:150] Setting up fc7_mbox_loc
I0531 15:43:30.079978 11959 net.cpp:157] Top shape: 8 24 19 19 (69312)
I0531 15:43:30.079980 11959 net.cpp:165] Memory required for data: 1991201600
I0531 15:43:30.079999 11959 layer_factory.hpp:77] Creating layer fc7_mbox_loc_perm
I0531 15:43:30.080008 11959 net.cpp:100] Creating Layer fc7_mbox_loc_perm
I0531 15:43:30.080013 11959 net.cpp:434] fc7_mbox_loc_perm <- fc7_mbox_loc
I0531 15:43:30.080018 11959 net.cpp:408] fc7_mbox_loc_perm -> fc7_mbox_loc_perm
I0531 15:43:30.080133 11959 net.cpp:150] Setting up fc7_mbox_loc_perm
I0531 15:43:30.080139 11959 net.cpp:157] Top shape: 8 19 19 24 (69312)
I0531 15:43:30.080142 11959 net.cpp:165] Memory required for data: 1991478848
I0531 15:43:30.080143 11959 layer_factory.hpp:77] Creating layer fc7_mbox_loc_flat
I0531 15:43:30.080147 11959 net.cpp:100] Creating Layer fc7_mbox_loc_flat
I0531 15:43:30.080150 11959 net.cpp:434] fc7_mbox_loc_flat <- fc7_mbox_loc_perm
I0531 15:43:30.080153 11959 net.cpp:408] fc7_mbox_loc_flat -> fc7_mbox_loc_flat
I0531 15:43:30.080178 11959 net.cpp:150] Setting up fc7_mbox_loc_flat
I0531 15:43:30.080184 11959 net.cpp:157] Top shape: 8 8664 (69312)
I0531 15:43:30.080188 11959 net.cpp:165] Memory required for data: 1991756096
I0531 15:43:30.080191 11959 layer_factory.hpp:77] Creating layer fc7_mbox_conf
I0531 15:43:30.080201 11959 net.cpp:100] Creating Layer fc7_mbox_conf
I0531 15:43:30.080206 11959 net.cpp:434] fc7_mbox_conf <- fc7_relu7_0_split_2
I0531 15:43:30.080212 11959 net.cpp:408] fc7_mbox_conf -> fc7_mbox_conf
I0531 15:43:30.087631 11959 net.cpp:150] Setting up fc7_mbox_conf
I0531 15:43:30.087648 11959 net.cpp:157] Top shape: 8 126 19 19 (363888)
I0531 15:43:30.087651 11959 net.cpp:165] Memory required for data: 1993211648
I0531 15:43:30.087658 11959 layer_factory.hpp:77] Creating layer fc7_mbox_conf_perm
I0531 15:43:30.087671 11959 net.cpp:100] Creating Layer fc7_mbox_conf_perm
I0531 15:43:30.087676 11959 net.cpp:434] fc7_mbox_conf_perm <- fc7_mbox_conf
I0531 15:43:30.087682 11959 net.cpp:408] fc7_mbox_conf_perm -> fc7_mbox_conf_perm
I0531 15:43:30.087837 11959 net.cpp:150] Setting up fc7_mbox_conf_perm
I0531 15:43:30.087843 11959 net.cpp:157] Top shape: 8 19 19 126 (363888)
I0531 15:43:30.087846 11959 net.cpp:165] Memory required for data: 1994667200
I0531 15:43:30.087848 11959 layer_factory.hpp:77] Creating layer fc7_mbox_conf_flat
I0531 15:43:30.087853 11959 net.cpp:100] Creating Layer fc7_mbox_conf_flat
I0531 15:43:30.087855 11959 net.cpp:434] fc7_mbox_conf_flat <- fc7_mbox_conf_perm
I0531 15:43:30.087860 11959 net.cpp:408] fc7_mbox_conf_flat -> fc7_mbox_conf_flat
I0531 15:43:30.087885 11959 net.cpp:150] Setting up fc7_mbox_conf_flat
I0531 15:43:30.087890 11959 net.cpp:157] Top shape: 8 45486 (363888)
I0531 15:43:30.087894 11959 net.cpp:165] Memory required for data: 1996122752
I0531 15:43:30.087898 11959 layer_factory.hpp:77] Creating layer fc7_mbox_priorbox
I0531 15:43:30.087905 11959 net.cpp:100] Creating Layer fc7_mbox_priorbox
I0531 15:43:30.087908 11959 net.cpp:434] fc7_mbox_priorbox <- fc7_relu7_0_split_3
I0531 15:43:30.087911 11959 net.cpp:434] fc7_mbox_priorbox <- data_data_0_split_2
I0531 15:43:30.087916 11959 net.cpp:408] fc7_mbox_priorbox -> fc7_mbox_priorbox
I0531 15:43:30.087944 11959 net.cpp:150] Setting up fc7_mbox_priorbox
I0531 15:43:30.087950 11959 net.cpp:157] Top shape: 1 2 8664 (17328)
I0531 15:43:30.087954 11959 net.cpp:165] Memory required for data: 1996192064
I0531 15:43:30.087956 11959 layer_factory.hpp:77] Creating layer conv6_2_mbox_loc
I0531 15:43:30.087967 11959 net.cpp:100] Creating Layer conv6_2_mbox_loc
I0531 15:43:30.087970 11959 net.cpp:434] conv6_2_mbox_loc <- conv6_2_conv6_2_relu_0_split_1
I0531 15:43:30.087975 11959 net.cpp:408] conv6_2_mbox_loc -> conv6_2_mbox_loc
I0531 15:43:30.090382 11959 net.cpp:150] Setting up conv6_2_mbox_loc
I0531 15:43:30.090391 11959 net.cpp:157] Top shape: 8 24 10 10 (19200)
I0531 15:43:30.090394 11959 net.cpp:165] Memory required for data: 1996268864
I0531 15:43:30.090399 11959 layer_factory.hpp:77] Creating layer conv6_2_mbox_loc_perm
I0531 15:43:30.090404 11959 net.cpp:100] Creating Layer conv6_2_mbox_loc_perm
I0531 15:43:30.090406 11959 net.cpp:434] conv6_2_mbox_loc_perm <- conv6_2_mbox_loc
I0531 15:43:30.090411 11959 net.cpp:408] conv6_2_mbox_loc_perm -> conv6_2_mbox_loc_perm
I0531 15:43:30.090539 11959 net.cpp:150] Setting up conv6_2_mbox_loc_perm
I0531 15:43:30.090548 11959 net.cpp:157] Top shape: 8 10 10 24 (19200)
I0531 15:43:30.090549 11959 net.cpp:165] Memory required for data: 1996345664
I0531 15:43:30.090553 11959 layer_factory.hpp:77] Creating layer conv6_2_mbox_loc_flat
I0531 15:43:30.090555 11959 net.cpp:100] Creating Layer conv6_2_mbox_loc_flat
I0531 15:43:30.090559 11959 net.cpp:434] conv6_2_mbox_loc_flat <- conv6_2_mbox_loc_perm
I0531 15:43:30.090562 11959 net.cpp:408] conv6_2_mbox_loc_flat -> conv6_2_mbox_loc_flat
I0531 15:43:30.090584 11959 net.cpp:150] Setting up conv6_2_mbox_loc_flat
I0531 15:43:30.090592 11959 net.cpp:157] Top shape: 8 2400 (19200)
I0531 15:43:30.090595 11959 net.cpp:165] Memory required for data: 1996422464
I0531 15:43:30.090600 11959 layer_factory.hpp:77] Creating layer conv6_2_mbox_conf
I0531 15:43:30.090608 11959 net.cpp:100] Creating Layer conv6_2_mbox_conf
I0531 15:43:30.090613 11959 net.cpp:434] conv6_2_mbox_conf <- conv6_2_conv6_2_relu_0_split_2
I0531 15:43:30.090620 11959 net.cpp:408] conv6_2_mbox_conf -> conv6_2_mbox_conf
I0531 15:43:30.095365 11959 net.cpp:150] Setting up conv6_2_mbox_conf
I0531 15:43:30.095376 11959 net.cpp:157] Top shape: 8 126 10 10 (100800)
I0531 15:43:30.095377 11959 net.cpp:165] Memory required for data: 1996825664
I0531 15:43:30.095383 11959 layer_factory.hpp:77] Creating layer conv6_2_mbox_conf_perm
I0531 15:43:30.095388 11959 net.cpp:100] Creating Layer conv6_2_mbox_conf_perm
I0531 15:43:30.095393 11959 net.cpp:434] conv6_2_mbox_conf_perm <- conv6_2_mbox_conf
I0531 15:43:30.095397 11959 net.cpp:408] conv6_2_mbox_conf_perm -> conv6_2_mbox_conf_perm
I0531 15:43:30.095526 11959 net.cpp:150] Setting up conv6_2_mbox_conf_perm
I0531 15:43:30.095532 11959 net.cpp:157] Top shape: 8 10 10 126 (100800)
I0531 15:43:30.095535 11959 net.cpp:165] Memory required for data: 1997228864
I0531 15:43:30.095537 11959 layer_factory.hpp:77] Creating layer conv6_2_mbox_conf_flat
I0531 15:43:30.095541 11959 net.cpp:100] Creating Layer conv6_2_mbox_conf_flat
I0531 15:43:30.095544 11959 net.cpp:434] conv6_2_mbox_conf_flat <- conv6_2_mbox_conf_perm
I0531 15:43:30.095548 11959 net.cpp:408] conv6_2_mbox_conf_flat -> conv6_2_mbox_conf_flat
I0531 15:43:30.095571 11959 net.cpp:150] Setting up conv6_2_mbox_conf_flat
I0531 15:43:30.095577 11959 net.cpp:157] Top shape: 8 12600 (100800)
I0531 15:43:30.095580 11959 net.cpp:165] Memory required for data: 1997632064
I0531 15:43:30.095584 11959 layer_factory.hpp:77] Creating layer conv6_2_mbox_priorbox
I0531 15:43:30.095604 11959 net.cpp:100] Creating Layer conv6_2_mbox_priorbox
I0531 15:43:30.095609 11959 net.cpp:434] conv6_2_mbox_priorbox <- conv6_2_conv6_2_relu_0_split_3
I0531 15:43:30.095615 11959 net.cpp:434] conv6_2_mbox_priorbox <- data_data_0_split_3
I0531 15:43:30.095635 11959 net.cpp:408] conv6_2_mbox_priorbox -> conv6_2_mbox_priorbox
I0531 15:43:30.095721 11959 net.cpp:150] Setting up conv6_2_mbox_priorbox
I0531 15:43:30.095726 11959 net.cpp:157] Top shape: 1 2 2400 (4800)
I0531 15:43:30.095743 11959 net.cpp:165] Memory required for data: 1997651264
I0531 15:43:30.095746 11959 layer_factory.hpp:77] Creating layer conv7_2_mbox_loc
I0531 15:43:30.095754 11959 net.cpp:100] Creating Layer conv7_2_mbox_loc
I0531 15:43:30.095758 11959 net.cpp:434] conv7_2_mbox_loc <- conv7_2_conv7_2_relu_0_split_1
I0531 15:43:30.095777 11959 net.cpp:408] conv7_2_mbox_loc -> conv7_2_mbox_loc
I0531 15:43:30.097939 11959 net.cpp:150] Setting up conv7_2_mbox_loc
I0531 15:43:30.097950 11959 net.cpp:157] Top shape: 8 24 5 5 (4800)
I0531 15:43:30.097954 11959 net.cpp:165] Memory required for data: 1997670464
I0531 15:43:30.097982 11959 layer_factory.hpp:77] Creating layer conv7_2_mbox_loc_perm
I0531 15:43:30.097988 11959 net.cpp:100] Creating Layer conv7_2_mbox_loc_perm
I0531 15:43:30.097992 11959 net.cpp:434] conv7_2_mbox_loc_perm <- conv7_2_mbox_loc
I0531 15:43:30.098000 11959 net.cpp:408] conv7_2_mbox_loc_perm -> conv7_2_mbox_loc_perm
I0531 15:43:30.098165 11959 net.cpp:150] Setting up conv7_2_mbox_loc_perm
I0531 15:43:30.098182 11959 net.cpp:157] Top shape: 8 5 5 24 (4800)
I0531 15:43:30.098186 11959 net.cpp:165] Memory required for data: 1997689664
I0531 15:43:30.098191 11959 layer_factory.hpp:77] Creating layer conv7_2_mbox_loc_flat
I0531 15:43:30.098196 11959 net.cpp:100] Creating Layer conv7_2_mbox_loc_flat
I0531 15:43:30.098201 11959 net.cpp:434] conv7_2_mbox_loc_flat <- conv7_2_mbox_loc_perm
I0531 15:43:30.098208 11959 net.cpp:408] conv7_2_mbox_loc_flat -> conv7_2_mbox_loc_flat
I0531 15:43:30.098239 11959 net.cpp:150] Setting up conv7_2_mbox_loc_flat
I0531 15:43:30.098246 11959 net.cpp:157] Top shape: 8 600 (4800)
I0531 15:43:30.098249 11959 net.cpp:165] Memory required for data: 1997708864
I0531 15:43:30.098253 11959 layer_factory.hpp:77] Creating layer conv7_2_mbox_conf
I0531 15:43:30.098263 11959 net.cpp:100] Creating Layer conv7_2_mbox_conf
I0531 15:43:30.098266 11959 net.cpp:434] conv7_2_mbox_conf <- conv7_2_conv7_2_relu_0_split_2
I0531 15:43:30.098273 11959 net.cpp:408] conv7_2_mbox_conf -> conv7_2_mbox_conf
I0531 15:43:30.102488 11959 net.cpp:150] Setting up conv7_2_mbox_conf
I0531 15:43:30.102505 11959 net.cpp:157] Top shape: 8 126 5 5 (25200)
I0531 15:43:30.102509 11959 net.cpp:165] Memory required for data: 1997809664
I0531 15:43:30.102515 11959 layer_factory.hpp:77] Creating layer conv7_2_mbox_conf_perm
I0531 15:43:30.102524 11959 net.cpp:100] Creating Layer conv7_2_mbox_conf_perm
I0531 15:43:30.102527 11959 net.cpp:434] conv7_2_mbox_conf_perm <- conv7_2_mbox_conf
I0531 15:43:30.102546 11959 net.cpp:408] conv7_2_mbox_conf_perm -> conv7_2_mbox_conf_perm
I0531 15:43:30.102686 11959 net.cpp:150] Setting up conv7_2_mbox_conf_perm
I0531 15:43:30.102692 11959 net.cpp:157] Top shape: 8 5 5 126 (25200)
I0531 15:43:30.102694 11959 net.cpp:165] Memory required for data: 1997910464
I0531 15:43:30.102697 11959 layer_factory.hpp:77] Creating layer conv7_2_mbox_conf_flat
I0531 15:43:30.102702 11959 net.cpp:100] Creating Layer conv7_2_mbox_conf_flat
I0531 15:43:30.102705 11959 net.cpp:434] conv7_2_mbox_conf_flat <- conv7_2_mbox_conf_perm
I0531 15:43:30.102708 11959 net.cpp:408] conv7_2_mbox_conf_flat -> conv7_2_mbox_conf_flat
I0531 15:43:30.102748 11959 net.cpp:150] Setting up conv7_2_mbox_conf_flat
I0531 15:43:30.102767 11959 net.cpp:157] Top shape: 8 3150 (25200)
I0531 15:43:30.102771 11959 net.cpp:165] Memory required for data: 1998011264
I0531 15:43:30.102773 11959 layer_factory.hpp:77] Creating layer conv7_2_mbox_priorbox
I0531 15:43:30.102782 11959 net.cpp:100] Creating Layer conv7_2_mbox_priorbox
I0531 15:43:30.102784 11959 net.cpp:434] conv7_2_mbox_priorbox <- conv7_2_conv7_2_relu_0_split_3
I0531 15:43:30.102788 11959 net.cpp:434] conv7_2_mbox_priorbox <- data_data_0_split_4
I0531 15:43:30.102807 11959 net.cpp:408] conv7_2_mbox_priorbox -> conv7_2_mbox_priorbox
I0531 15:43:30.102854 11959 net.cpp:150] Setting up conv7_2_mbox_priorbox
I0531 15:43:30.102859 11959 net.cpp:157] Top shape: 1 2 600 (1200)
I0531 15:43:30.102861 11959 net.cpp:165] Memory required for data: 1998016064
I0531 15:43:30.102864 11959 layer_factory.hpp:77] Creating layer conv8_2_mbox_loc
I0531 15:43:30.102872 11959 net.cpp:100] Creating Layer conv8_2_mbox_loc
I0531 15:43:30.102875 11959 net.cpp:434] conv8_2_mbox_loc <- conv8_2_conv8_2_relu_0_split_1
I0531 15:43:30.102880 11959 net.cpp:408] conv8_2_mbox_loc -> conv8_2_mbox_loc
I0531 15:43:30.104645 11959 net.cpp:150] Setting up conv8_2_mbox_loc
I0531 15:43:30.104655 11959 net.cpp:157] Top shape: 8 16 3 3 (1152)
I0531 15:43:30.104656 11959 net.cpp:165] Memory required for data: 1998020672
I0531 15:43:30.104667 11959 layer_factory.hpp:77] Creating layer conv8_2_mbox_loc_perm
I0531 15:43:30.104672 11959 net.cpp:100] Creating Layer conv8_2_mbox_loc_perm
I0531 15:43:30.104676 11959 net.cpp:434] conv8_2_mbox_loc_perm <- conv8_2_mbox_loc
I0531 15:43:30.104681 11959 net.cpp:408] conv8_2_mbox_loc_perm -> conv8_2_mbox_loc_perm
I0531 15:43:30.104799 11959 net.cpp:150] Setting up conv8_2_mbox_loc_perm
I0531 15:43:30.104805 11959 net.cpp:157] Top shape: 8 3 3 16 (1152)
I0531 15:43:30.104818 11959 net.cpp:165] Memory required for data: 1998025280
I0531 15:43:30.104820 11959 layer_factory.hpp:77] Creating layer conv8_2_mbox_loc_flat
I0531 15:43:30.104825 11959 net.cpp:100] Creating Layer conv8_2_mbox_loc_flat
I0531 15:43:30.104827 11959 net.cpp:434] conv8_2_mbox_loc_flat <- conv8_2_mbox_loc_perm
I0531 15:43:30.104832 11959 net.cpp:408] conv8_2_mbox_loc_flat -> conv8_2_mbox_loc_flat
I0531 15:43:30.104892 11959 net.cpp:150] Setting up conv8_2_mbox_loc_flat
I0531 15:43:30.104898 11959 net.cpp:157] Top shape: 8 144 (1152)
I0531 15:43:30.104900 11959 net.cpp:165] Memory required for data: 1998029888
I0531 15:43:30.104902 11959 layer_factory.hpp:77] Creating layer conv8_2_mbox_conf
I0531 15:43:30.104912 11959 net.cpp:100] Creating Layer conv8_2_mbox_conf
I0531 15:43:30.104913 11959 net.cpp:434] conv8_2_mbox_conf <- conv8_2_conv8_2_relu_0_split_2
I0531 15:43:30.104918 11959 net.cpp:408] conv8_2_mbox_conf -> conv8_2_mbox_conf
I0531 15:43:30.107985 11959 net.cpp:150] Setting up conv8_2_mbox_conf
I0531 15:43:30.107992 11959 net.cpp:157] Top shape: 8 84 3 3 (6048)
I0531 15:43:30.107995 11959 net.cpp:165] Memory required for data: 1998054080
I0531 15:43:30.108000 11959 layer_factory.hpp:77] Creating layer conv8_2_mbox_conf_perm
I0531 15:43:30.108006 11959 net.cpp:100] Creating Layer conv8_2_mbox_conf_perm
I0531 15:43:30.108009 11959 net.cpp:434] conv8_2_mbox_conf_perm <- conv8_2_mbox_conf
I0531 15:43:30.108013 11959 net.cpp:408] conv8_2_mbox_conf_perm -> conv8_2_mbox_conf_perm
I0531 15:43:30.108134 11959 net.cpp:150] Setting up conv8_2_mbox_conf_perm
I0531 15:43:30.108139 11959 net.cpp:157] Top shape: 8 3 3 84 (6048)
I0531 15:43:30.108141 11959 net.cpp:165] Memory required for data: 1998078272
I0531 15:43:30.108144 11959 layer_factory.hpp:77] Creating layer conv8_2_mbox_conf_flat
I0531 15:43:30.108147 11959 net.cpp:100] Creating Layer conv8_2_mbox_conf_flat
I0531 15:43:30.108151 11959 net.cpp:434] conv8_2_mbox_conf_flat <- conv8_2_mbox_conf_perm
I0531 15:43:30.108155 11959 net.cpp:408] conv8_2_mbox_conf_flat -> conv8_2_mbox_conf_flat
I0531 15:43:30.108181 11959 net.cpp:150] Setting up conv8_2_mbox_conf_flat
I0531 15:43:30.108187 11959 net.cpp:157] Top shape: 8 756 (6048)
I0531 15:43:30.108191 11959 net.cpp:165] Memory required for data: 1998102464
I0531 15:43:30.108194 11959 layer_factory.hpp:77] Creating layer conv8_2_mbox_priorbox
I0531 15:43:30.108199 11959 net.cpp:100] Creating Layer conv8_2_mbox_priorbox
I0531 15:43:30.108202 11959 net.cpp:434] conv8_2_mbox_priorbox <- conv8_2_conv8_2_relu_0_split_3
I0531 15:43:30.108207 11959 net.cpp:434] conv8_2_mbox_priorbox <- data_data_0_split_5
I0531 15:43:30.108211 11959 net.cpp:408] conv8_2_mbox_priorbox -> conv8_2_mbox_priorbox
I0531 15:43:30.108242 11959 net.cpp:150] Setting up conv8_2_mbox_priorbox
I0531 15:43:30.108247 11959 net.cpp:157] Top shape: 1 2 144 (288)
I0531 15:43:30.108249 11959 net.cpp:165] Memory required for data: 1998103616
I0531 15:43:30.108252 11959 layer_factory.hpp:77] Creating layer conv9_2_mbox_loc
I0531 15:43:30.108258 11959 net.cpp:100] Creating Layer conv9_2_mbox_loc
I0531 15:43:30.108260 11959 net.cpp:434] conv9_2_mbox_loc <- conv9_2_conv9_2_relu_0_split_0
I0531 15:43:30.108265 11959 net.cpp:408] conv9_2_mbox_loc -> conv9_2_mbox_loc
I0531 15:43:30.110388 11959 net.cpp:150] Setting up conv9_2_mbox_loc
I0531 15:43:30.110397 11959 net.cpp:157] Top shape: 8 16 1 1 (128)
I0531 15:43:30.110399 11959 net.cpp:165] Memory required for data: 1998104128
I0531 15:43:30.110404 11959 layer_factory.hpp:77] Creating layer conv9_2_mbox_loc_perm
I0531 15:43:30.110409 11959 net.cpp:100] Creating Layer conv9_2_mbox_loc_perm
I0531 15:43:30.110414 11959 net.cpp:434] conv9_2_mbox_loc_perm <- conv9_2_mbox_loc
I0531 15:43:30.110416 11959 net.cpp:408] conv9_2_mbox_loc_perm -> conv9_2_mbox_loc_perm
I0531 15:43:30.110536 11959 net.cpp:150] Setting up conv9_2_mbox_loc_perm
I0531 15:43:30.110541 11959 net.cpp:157] Top shape: 8 1 1 16 (128)
I0531 15:43:30.110543 11959 net.cpp:165] Memory required for data: 1998104640
I0531 15:43:30.110546 11959 layer_factory.hpp:77] Creating layer conv9_2_mbox_loc_flat
I0531 15:43:30.110558 11959 net.cpp:100] Creating Layer conv9_2_mbox_loc_flat
I0531 15:43:30.110563 11959 net.cpp:434] conv9_2_mbox_loc_flat <- conv9_2_mbox_loc_perm
I0531 15:43:30.110565 11959 net.cpp:408] conv9_2_mbox_loc_flat -> conv9_2_mbox_loc_flat
I0531 15:43:30.110594 11959 net.cpp:150] Setting up conv9_2_mbox_loc_flat
I0531 15:43:30.110600 11959 net.cpp:157] Top shape: 8 16 (128)
I0531 15:43:30.110604 11959 net.cpp:165] Memory required for data: 1998105152
I0531 15:43:30.110605 11959 layer_factory.hpp:77] Creating layer conv9_2_mbox_conf
I0531 15:43:30.110611 11959 net.cpp:100] Creating Layer conv9_2_mbox_conf
I0531 15:43:30.110615 11959 net.cpp:434] conv9_2_mbox_conf <- conv9_2_conv9_2_relu_0_split_1
I0531 15:43:30.110620 11959 net.cpp:408] conv9_2_mbox_conf -> conv9_2_mbox_conf
I0531 15:43:30.113246 11959 net.cpp:150] Setting up conv9_2_mbox_conf
I0531 15:43:30.113255 11959 net.cpp:157] Top shape: 8 84 1 1 (672)
I0531 15:43:30.113256 11959 net.cpp:165] Memory required for data: 1998107840
I0531 15:43:30.113261 11959 layer_factory.hpp:77] Creating layer conv9_2_mbox_conf_perm
I0531 15:43:30.113266 11959 net.cpp:100] Creating Layer conv9_2_mbox_conf_perm
I0531 15:43:30.113270 11959 net.cpp:434] conv9_2_mbox_conf_perm <- conv9_2_mbox_conf
I0531 15:43:30.113273 11959 net.cpp:408] conv9_2_mbox_conf_perm -> conv9_2_mbox_conf_perm
I0531 15:43:30.113422 11959 net.cpp:150] Setting up conv9_2_mbox_conf_perm
I0531 15:43:30.113428 11959 net.cpp:157] Top shape: 8 1 1 84 (672)
I0531 15:43:30.113430 11959 net.cpp:165] Memory required for data: 1998110528
I0531 15:43:30.113432 11959 layer_factory.hpp:77] Creating layer conv9_2_mbox_conf_flat
I0531 15:43:30.113437 11959 net.cpp:100] Creating Layer conv9_2_mbox_conf_flat
I0531 15:43:30.113440 11959 net.cpp:434] conv9_2_mbox_conf_flat <- conv9_2_mbox_conf_perm
I0531 15:43:30.113445 11959 net.cpp:408] conv9_2_mbox_conf_flat -> conv9_2_mbox_conf_flat
I0531 15:43:30.113466 11959 net.cpp:150] Setting up conv9_2_mbox_conf_flat
I0531 15:43:30.113469 11959 net.cpp:157] Top shape: 8 84 (672)
I0531 15:43:30.113471 11959 net.cpp:165] Memory required for data: 1998113216
I0531 15:43:30.113473 11959 layer_factory.hpp:77] Creating layer conv9_2_mbox_priorbox
I0531 15:43:30.113478 11959 net.cpp:100] Creating Layer conv9_2_mbox_priorbox
I0531 15:43:30.113482 11959 net.cpp:434] conv9_2_mbox_priorbox <- conv9_2_conv9_2_relu_0_split_2
I0531 15:43:30.113485 11959 net.cpp:434] conv9_2_mbox_priorbox <- data_data_0_split_6
I0531 15:43:30.113492 11959 net.cpp:408] conv9_2_mbox_priorbox -> conv9_2_mbox_priorbox
I0531 15:43:30.113519 11959 net.cpp:150] Setting up conv9_2_mbox_priorbox
I0531 15:43:30.113524 11959 net.cpp:157] Top shape: 1 2 16 (32)
I0531 15:43:30.113526 11959 net.cpp:165] Memory required for data: 1998113344
I0531 15:43:30.113528 11959 layer_factory.hpp:77] Creating layer mbox_loc
I0531 15:43:30.113534 11959 net.cpp:100] Creating Layer mbox_loc
I0531 15:43:30.113538 11959 net.cpp:434] mbox_loc <- conv4_3_norm_mbox_loc_flat
I0531 15:43:30.113544 11959 net.cpp:434] mbox_loc <- fc7_mbox_loc_flat
I0531 15:43:30.113548 11959 net.cpp:434] mbox_loc <- conv6_2_mbox_loc_flat
I0531 15:43:30.113554 11959 net.cpp:434] mbox_loc <- conv7_2_mbox_loc_flat
I0531 15:43:30.113556 11959 net.cpp:434] mbox_loc <- conv8_2_mbox_loc_flat
I0531 15:43:30.113559 11959 net.cpp:434] mbox_loc <- conv9_2_mbox_loc_flat
I0531 15:43:30.113564 11959 net.cpp:408] mbox_loc -> mbox_loc
I0531 15:43:30.113587 11959 net.cpp:150] Setting up mbox_loc
I0531 15:43:30.113592 11959 net.cpp:157] Top shape: 8 34928 (279424)
I0531 15:43:30.113595 11959 net.cpp:165] Memory required for data: 1999231040
I0531 15:43:30.113596 11959 layer_factory.hpp:77] Creating layer mbox_conf
I0531 15:43:30.113601 11959 net.cpp:100] Creating Layer mbox_conf
I0531 15:43:30.113605 11959 net.cpp:434] mbox_conf <- conv4_3_norm_mbox_conf_flat
I0531 15:43:30.113610 11959 net.cpp:434] mbox_conf <- fc7_mbox_conf_flat
I0531 15:43:30.113613 11959 net.cpp:434] mbox_conf <- conv6_2_mbox_conf_flat
I0531 15:43:30.113618 11959 net.cpp:434] mbox_conf <- conv7_2_mbox_conf_flat
I0531 15:43:30.113629 11959 net.cpp:434] mbox_conf <- conv8_2_mbox_conf_flat
I0531 15:43:30.113633 11959 net.cpp:434] mbox_conf <- conv9_2_mbox_conf_flat
I0531 15:43:30.113637 11959 net.cpp:408] mbox_conf -> mbox_conf
I0531 15:43:30.113662 11959 net.cpp:150] Setting up mbox_conf
I0531 15:43:30.113667 11959 net.cpp:157] Top shape: 8 183372 (1466976)
I0531 15:43:30.113672 11959 net.cpp:165] Memory required for data: 2005098944
I0531 15:43:30.113674 11959 layer_factory.hpp:77] Creating layer mbox_priorbox
I0531 15:43:30.113679 11959 net.cpp:100] Creating Layer mbox_priorbox
I0531 15:43:30.113683 11959 net.cpp:434] mbox_priorbox <- conv4_3_norm_mbox_priorbox
I0531 15:43:30.113687 11959 net.cpp:434] mbox_priorbox <- fc7_mbox_priorbox
I0531 15:43:30.113690 11959 net.cpp:434] mbox_priorbox <- conv6_2_mbox_priorbox
I0531 15:43:30.113692 11959 net.cpp:434] mbox_priorbox <- conv7_2_mbox_priorbox
I0531 15:43:30.113694 11959 net.cpp:434] mbox_priorbox <- conv8_2_mbox_priorbox
I0531 15:43:30.113698 11959 net.cpp:434] mbox_priorbox <- conv9_2_mbox_priorbox
I0531 15:43:30.113701 11959 net.cpp:408] mbox_priorbox -> mbox_priorbox
I0531 15:43:30.113724 11959 net.cpp:150] Setting up mbox_priorbox
I0531 15:43:30.113729 11959 net.cpp:157] Top shape: 1 2 34928 (69856)
I0531 15:43:30.113731 11959 net.cpp:165] Memory required for data: 2005378368
I0531 15:43:30.113734 11959 layer_factory.hpp:77] Creating layer mbox_conf_reshape
I0531 15:43:30.113740 11959 net.cpp:100] Creating Layer mbox_conf_reshape
I0531 15:43:30.113744 11959 net.cpp:434] mbox_conf_reshape <- mbox_conf
I0531 15:43:30.113752 11959 net.cpp:408] mbox_conf_reshape -> mbox_conf_reshape
I0531 15:43:30.113782 11959 net.cpp:150] Setting up mbox_conf_reshape
I0531 15:43:30.113787 11959 net.cpp:157] Top shape: 8 8732 21 (1466976)
I0531 15:43:30.113790 11959 net.cpp:165] Memory required for data: 2011246272
I0531 15:43:30.113792 11959 layer_factory.hpp:77] Creating layer mbox_conf_softmax
I0531 15:43:30.113812 11959 net.cpp:100] Creating Layer mbox_conf_softmax
I0531 15:43:30.113816 11959 net.cpp:434] mbox_conf_softmax <- mbox_conf_reshape
I0531 15:43:30.113837 11959 net.cpp:408] mbox_conf_softmax -> mbox_conf_softmax
I0531 15:43:30.114295 11959 net.cpp:150] Setting up mbox_conf_softmax
I0531 15:43:30.114303 11959 net.cpp:157] Top shape: 8 8732 21 (1466976)
I0531 15:43:30.114305 11959 net.cpp:165] Memory required for data: 2017114176
I0531 15:43:30.114323 11959 layer_factory.hpp:77] Creating layer mbox_conf_flatten
I0531 15:43:30.114328 11959 net.cpp:100] Creating Layer mbox_conf_flatten
I0531 15:43:30.114333 11959 net.cpp:434] mbox_conf_flatten <- mbox_conf_softmax
I0531 15:43:30.114339 11959 net.cpp:408] mbox_conf_flatten -> mbox_conf_flatten
I0531 15:43:30.114392 11959 net.cpp:150] Setting up mbox_conf_flatten
I0531 15:43:30.114400 11959 net.cpp:157] Top shape: 8 183372 (1466976)
I0531 15:43:30.114404 11959 net.cpp:165] Memory required for data: 2022982080
I0531 15:43:30.114406 11959 layer_factory.hpp:77] Creating layer detection_out
I0531 15:43:30.114431 11959 net.cpp:100] Creating Layer detection_out
I0531 15:43:30.114449 11959 net.cpp:434] detection_out <- mbox_loc
I0531 15:43:30.114454 11959 net.cpp:434] detection_out <- mbox_conf_flatten
I0531 15:43:30.114459 11959 net.cpp:434] detection_out <- mbox_priorbox
I0531 15:43:30.114465 11959 net.cpp:408] detection_out -> detection_out
W0531 15:43:30.114504 11959 detection_output_layer.cpp:49] Failed to create directory: /home/yanyu/data/VOCdevkit/results/VOC2007/SSD_300x300/Main
I0531 15:43:30.117709 11959 net.cpp:150] Setting up detection_out
I0531 15:43:30.117729 11959 net.cpp:157] Top shape: 1 1 1 7 (7)
I0531 15:43:30.117732 11959 net.cpp:165] Memory required for data: 2022982108
I0531 15:43:30.117736 11959 layer_factory.hpp:77] Creating layer detection_eval
I0531 15:43:30.117746 11959 net.cpp:100] Creating Layer detection_eval
I0531 15:43:30.117749 11959 net.cpp:434] detection_eval <- detection_out
I0531 15:43:30.117754 11959 net.cpp:434] detection_eval <- label
I0531 15:43:30.117758 11959 net.cpp:408] detection_eval -> detection_eval
I0531 15:43:30.118561 11959 net.cpp:150] Setting up detection_eval
I0531 15:43:30.118574 11959 net.cpp:157] Top shape: 1 1 21 5 (105)
I0531 15:43:30.118577 11959 net.cpp:165] Memory required for data: 2022982528
I0531 15:43:30.118580 11959 net.cpp:228] detection_eval does not need backward computation.
I0531 15:43:30.118583 11959 net.cpp:228] detection_out does not need backward computation.
I0531 15:43:30.118587 11959 net.cpp:228] mbox_conf_flatten does not need backward computation.
I0531 15:43:30.118589 11959 net.cpp:228] mbox_conf_softmax does not need backward computation.
…
